checkpoint_critic.pth (torch, 583044 bytes, 9 tensors)

bn1.weight f4 [24]
00000000: 0000 803f 0000 803f 0000 803f 0000 803f
00000010: 0000 803f 0000 803f 0000 803f 0000 803f
00000020: 0000 803f 0000 803f 0000 803f 0000 803f
00000030: 0000 803f 0000 803f 0000 803f 0000 803f
00000040: 0000 803f 0000 803f 0000 803f 0000 803f
00000050: 0000 803f 0000 803f 0000 803f 0000 803f
1.0 1.0 1.0 1.0 1.0 1.0 1.0 1.0
1.0 1.0 1.0 1.0 1.0 1.0 1.0 1.0
1.0 1.0 1.0 1.0 1.0 1.0 1.0 1.0

bn1.bias f4 [24]
00000000: 0000 0000 0000 0000 0000 0000 0000 0000
00000010: 0000 0000 0000 0000 0000 0000 0000 0000
00000020: 0000 0000 0000 0000 0000 0000 0000 0000
00000030: 0000 0000 0000 0000 0000 0000 0000 0000
00000040: 0000 0000 0000 0000 0000 0000 0000 0000
00000050: 0000 0000 0000 0000 0000 0000 0000 0000
0.0 0.0 0.0 0.0 0.0 0.0 0.0 0.0
0.0 0.0 0.0 0.0 0.0 0.0 0.0 0.0
0.0 0.0 0.0 0.0 0.0 0.0 0.0 0.0

bn1.running_mean f4 [24]
00000000: e769 67c0 623e 15bf e172 7741 5f12 c13e
00000010: ec09 d63d 7dea 3940 e172 7741 5f12 c13e
00000020: 2978 78c0 a96a 29bf 82a0 8741 dc21 1a3e
00000030: f061 133e e463 3240 82a0 8741 dc21 1a3e
00000040: 236f 84c0 c2e9 41bf e25b 9241 f787 72bd
00000050: 1351 003e fae0 2540 e25b 9241 f787 72bd
-3.6158388 -0.58298314 15.465547 0.3770933 0.10451111 2.904937 15.465547 0.3770933
-3.882334 -0.66178375 16.953373 0.15051979 0.14392829 2.7873468 16.953373 0.15051979
-4.1385665 -0.7574731 18.294865 -0.059211697 0.12530927 2.5918565 18.294865 -0.059211697

bn1.running_var f4 [24]
00000000: 897b a441 5876 953f 5760 8443 2b9b a740
00000010: bcf2 2942 73c6 b240 5760 8443 2b9b a740
00000020: 4595 a941 b1df 973f c7b4 7d43 c219 c540
00000030: 8772 3742 6289 d040 c7b4 7d43 c219 c540
00000040: 14df ad41 3a59 983f b0b0 7a43 0857 f840
00000050: c5aa 4442 73f0 0041 b0b0 7a43 0857 f840
20.56032 1.1676741 264.75266 5.2376914 42.487045 5.5867248 264.75266 5.2376914
21.197886 1.186514 253.70616 6.1593943 45.861843 6.5167704 253.70616 6.1593943
21.733925 1.190223 250.69019 7.760624 49.166767 8.058703 250.69019 7.760624

fcs1.weight f4 [512, 24]
00000000: 837b 8a3c 2511 2d3d ebdc 593c 9a72 e93b
00000010: a4a3 21bd 69c5 70bd fb73 e5bc 5156 7fbc
00000020: 434b e4bc 4707 c53c 8f60 77bc 1a90 09bd
00000030: 02fc 1cbd 925b 80bc e411 d03b a419 4b3c
00000040: 7878 12bd d4ee c83b f63b eebc 2d8a e3bc
00000050: bd19 543c 06fa 94bd 39cf 34bc 678d e93c
00000060: ec39 38b9 0a70 98bc 6a80 58bc 4a53 7e3c
00000070: dc66 093c 1001 963c 5895 803d 878b 21bd
00000080: f54c fabc 70a2 bdbc 531a dfbc 8151 0f3c
00000090: c233 053d c7e4 bdbc 815a 003d ae13 01bd
000000a0: 3a32 413d 162f 323a ef52 06bd 0a63 243d
000000b0: d1df 223d 58a1 f2bc 49bc 1cbd beb3 0bbd
000000c0: fdd5 1abd cea1 ecbd ee1f 2e3c 9acc 2abd
000000d0: 8b16 dcbc fc07 88bd 6c55 55ba 1014 22bd
000000e0: b1fd b13c 66fa 52bd 6967 86bc 7499 153b
000000f0: b8d1 623d 4dee 86bd f965 6a3d 1d78 923b
00000100: 6df6 433b b36c bebd 3ddb 1ebb 842f 69bd
00000110: 7fc1 4c3d 05c5 29bd 8420 29bd 920b 76bd
00000120: 8e59 0bbc c278 b03c 3b75 e33c 9357 09bd
00000130: be88 963a f669 81bd 077f e43c 49d9 93bb
00000140: a285 1b3b 93f8 c73c 9079 343d c69b cabc
00000150: c8f5 083d 1078 38bd ee4c 6e3c 1e20 17bc
00000160: 6814 2c3d 563a 4abd 71a5 0abd 4c2a 35bc
00000170: 1ffa 0fbd b165 bfbd 9f8a 26bd e6f2 5f3c
00000180: 2c4d c0bc 527d ea3c e290 193d fcca 72bd
00000190: 774a 81bc 2889 55bb d82c d6bb c928 b1bb
000001a0: bbb1 d23c 128d f53c a736 c43a e479 df3b
000001b0: a160 493d 0f0c 023d b212 40bc 3b86 763c
000001c0: 6f4c 1f3d 8d82 033d a23d e1bc 3ef2 a43b
000001d0: 9bed 24bd 64a8 293d 122d e0bc 6e86 80bc
000001e0: 88dc 26bd abab cc3c 435f c33c 7b05 223d
000001f0: bdd8 96bc 1b51 843c 47bc 9b3c 7d36 0d3d
00000200: 55be fe3c d283 69bc a524 fdbc 5d9a e23b
00000210: 5174 b03b 73c3 7f3c 11c9 8ebc e1c3 373b
00000220: 14a4 2cbd 2945 613b d1d0 36bd 047b 1c3d
00000230: 8ab1 7d3b 724f 0c3d 15bb 28bd fe8b 5c3b
00000240: b9fa af39 6982 ddbc bb3b 993c ff42 8dbb
00000250: 6d25 d83c 1445 0abd 3bb3 f03c f31f 183d
00000260: aaf3 f03c 40ad 07bd 0acc 15bd 0660 463c
00000270: 898e 4b3d 2dd8 06bb d05c 103d 5822 363d
00000280: 07ae f23b cef3 e9bc 36f9 84bb 9589 43bc
00000290: 0a76 233d b990 2abd c08f d83c e457 25bd
000002a0: 25a0 03bd 413d cf3c dcd2 88bc 8c1b 76bd
000002b0: ebc7 c6bc e7a2 193d e3e8 0cbd f4b0 40bd
000002c0: ab5c b43a fcb0 afbc 10d9 46bd 9ba8 99bd
000002d0: 62f4 31bd 6174 a63b 7f71 b2bc d1cd 7ebb
000002e0: 5965 453c 0037 19bd c6ad 93bd c542 a4bd
000002f0: 212e 313d 1756 2bbc cf2b 53bc d301 17bd
00000300: 6aac c03c 3a46 713c c8d6 d9bb b096 b6bc
00000310: f874 e53c 9bf3 a4bb e7b7 df3c 24e5 c7bc
00000320: 7639 2dbd e20c 59bb 7bd9 9d3c 2586 083d
00000330: d6dc 9abc 6deb 933b 31f2 82bc 67ed 44bd
00000340: ae99 033d 7caa 733c 5fa6 233c 01e6 0dbd
00000350: 6112 b03c 2949 e03c 01ca bd3a e489 c2bc
00000360: f0fb d13c f5ca 52bd dc8f 1a3d e073 d9bc
00000370: 9d51 48bc 3964 3a3d 47f2 1dbc f2fa fcbb
00000380: 4f20 6ebc c7a5 903c 4131 583c b9bb 773d
00000390: bc1b b5bc 2878 67bc 4113 2dbc 9c0a b23b
000003a0: a449 dabc f18f 49bd 79d4 113d d417 0bbc
000003b0: be55 303d e2f3 14bd 4267 9e3c 427c 223b
000003c0: 9dc7 c8bc 9778 0ebd 9dc4 ef3c 333f d23c
000003d0: a2b6 5ebc 099d de3c ed1b 1fbd 8d0b c0bc
000003e0: b589 1abd 2351 68bc 76eb 16bd b6f7 973b
000003f0: c5f6 f5bc 41c4 e13b c8ae 523b 43a5 14bd
0.016904598 0.04225268 0.0132973 0.0071242573 -0.0394627 -0.058782015 -0.028009405 -0.015584544
-0.027867919 0.024051322 -0.015098705 -0.03358469 -0.03832627 -0.015668664 0.006349789 0.01239625
-0.03575942 0.006131986 -0.029081326 -0.027775848 0.01294559 -0.07274251 -0.011035734 0.028509809
-0.00017569185 -0.018608112 -0.01321421 0.015522787 0.00838634 0.018311054 0.06278485 -0.039439704
-0.030554274 -0.023148745 -0.027234232 0.008747459 0.032520063 -0.023180379 0.03133631 -0.03151291
0.04716704 0.00067971775 -0.032793935 0.040133514 0.03976423 -0.02961795 -0.0382655 -0.034106962
-0.03780173 -0.11554299 0.01062773 -0.04169903 -0.026866218 -0.06642148 -0.0008138034 -0.039569914
0.021727415 -0.05150833 -0.016406732 0.002282706 0.055375785 -0.06588421 0.057226155 0.004469885
0.002990152 -0.092980765 -0.0024239563 -0.05693008 0.04998922 -0.041447658 -0.041290775 -0.060069628
-0.008505238 0.021541957 0.02776586 -0.033530783 0.0011484844 -0.063190386 0.027892603 -0.0045119864
0.0023730774 0.024410522 0.044061244 -0.024732482 0.03343752 -0.045036376 0.014544709 -0.009223966
0.04201165 -0.04937204 -0.033849183 -0.011057448 -0.035150643 -0.09345568 -0.040659543 0.013668751
-0.023474298 0.02862421 0.037491687 -0.059275612 -0.015782578 -0.0032582972 -0.0065361075 -0.0054064733
0.025719514 0.029974494 0.0014969901 0.0068199504 0.049164418 0.03174978 -0.011723207 0.0150466515
0.038891252 0.032106925 -0.02749521 0.0050337603 -0.04026566 0.041420355 -0.027365241 -0.015689101
-0.04073766 0.024984201 0.023849135 0.039556008 -0.018413896 0.016151955 0.019010676 0.034475792
0.031096617 -0.01425262 -0.030901263 0.006915374 0.0053849597 0.015610564 -0.01742986 0.0028040337
-0.042148665 0.0034373498 -0.044632737 0.038203254 0.0038710558 0.034255452 -0.04119404 0.0033652778
0.00033565404 -0.027039723 0.01870524 -0.004310965 0.026385034 -0.033757284 0.029382339 0.037139844
0.029413063 -0.03312421 -0.03657154 0.012107855 0.04969648 -0.0020575628 0.035244763 0.044466347
0.0074059996 -0.028558638 -0.0040580286 -0.011934658 0.039907493 -0.041641925 0.026435733 -0.040367022
-0.032135148 0.025297763 -0.016702108 -0.060084864 -0.02426525 0.03750887 -0.034401786 -0.047043756
0.0013760527 -0.021446697 -0.04854685 -0.07502862 -0.043445952 0.0050797914 -0.021782635 -0.003888
0.012048089 -0.037405968 -0.07210879 -0.08020548 0.043256883 -0.010457537 -0.012888863 -0.036866974
0.023519713 0.014726216 -0.0066479184 -0.02228865 0.028009877 -0.005033923 0.027309371 -0.024401255
-0.042291127 -0.003311925 0.019268742 0.033331055 -0.01890413 0.004514149 -0.015984626 -0.048077967
0.032128982 0.01487219 0.009988396 -0.034643177 0.021493139 0.027378635 0.0014479758 -0.023747392
0.025632828 -0.051463086 0.03773485 -0.026544511 -0.012226489 0.045505736 -0.009640283 -0.0077203447
-0.01453407 0.017657174 0.013195337 0.06048176 -0.022107951 -0.014127769 -0.0105636725 0.0054333936
-0.026646443 -0.04920954 0.03560302 -0.008489568 0.04305052 -0.036365397 0.019336347 0.0024793302
-0.024509246 -0.034782972 0.029268557 0.025664901 -0.013593348 0.02717449 -0.03884499 -0.023443008
-0.037728984 -0.014179501 -0.036845647 0.0046376837 -0.030024895 0.0068898504 0.0032147635 -0.03629042

fcs1.bias f4 [512]
00000000: 46a7 343c 6d48 5f3c 797b 233c e175 25be
00000010: b18d 84bd 5a11 4d3d ded0 a6bd a824 533e
00000020: 2376 46bd 6e16 39bd 912c f0bd 577a c53d
00000030: 50aa 4a3e c893 333e 661b 34be 1351 d5bb
00000040: 3b65 86bd 454b 3fbd f7c6 42be 6112 583e
00000050: 0c1b 2b3e b6a2 2cbe 70f7 e93d b600 97bd
00000060: e89f 403e ad72 4cbc ab4d cb3d 8ea0 19bd
00000070: bccc 85bd 287e 53be 85f5 27be 3b8e 483e
00000080: 31a1 423e 9537 4f3e eef5 283e 0a91 3bbe
00000090: 9d2a fabd dcc7 4b3d 3928 39be e593 1b3c
000000a0: 54d3 ad3d 81e8 54bd 57d7 783c 0e96 ad3c
000000b0: d314 6bbd 0177 c23c de84 353d 90e5 2cbe
000000c0: 9211 343e 81fe 573e fa47 26be b97e 60bd
000000d0: 66d3 d0bb 2c92 e0bb 5236 bebd 380b bd3c
000000e0: 0dfe 993d 82e5 4b3d efd8 fc3d 055d 133d
000000f0: 0b39 833d 8ec9 22bc 918f 80bd 3cc1 9b3d
00000100: c4d6 1b3e 705c 8fbc f9ba 2cbe 6c8d b53d
00000110: 7fc9 21be afe4 8a3d 06ba 4d3e 9236 10be
00000120: f08b 3fbc e830 3d3e bd03 8a3d e8f2 393e
00000130: 5079 cbbd 9551 18bd 1679 fbbd b452 02be
00000140: e2d9 233d 4155 253e 9546 3d3e 3146 8cbd
00000150: 1ff4 243e b905 1cbe 5943 57be c919 9b3c
00000160: 363e 393e 8df6 303e 740e 23be 289e 51bd
00000170: fab8 3d3e f52b bd3d 39d4 d5bb 59ad a6bd
00000180: 289e 073e aa1f 1e3e 7ba5 0c3e 8a9b b73d
00000190: c0e4 c7bd e3af 42be 4de2 3c3e 2b61 3c3d
000001a0: 7b3e 3c3d 5f7a 873d 40a3 b0bd b083 14be
000001b0: 6497 d63d d15a 17bd 47c5 4dbe b907 78bd
000001c0: 89d3 28bd 4b5d 18be 38d9 23be fcdf 1fbd
000001d0: 6c81 34be 5305 e83d cd64 3fbe 9a7b d6bd
000001e0: 6b7a 20be 9ce3 a3bd 6a3a 3fbe b290 62bd
000001f0: d572 0ebe 8105 ee3d 17df 3abe af7b 533e
00000200: f332 4f3e 3f99 5e3d 0070 06bd 600a f2bd
00000210: 498a bbbd 41dc 10be a1b2 003d 2b1f 433e
00000220: b44b 81bd 653b b6bd 6aa4 023d 7a3f 55be
00000230: 4fec 7ebd 733c 13be f329 12be e797 2ebd
00000240: bf4d 283e 2fd4 b43d 5e72 8b3d 7bec 363e
00000250: 20d1 d63d 9cd2 75bc af57 083d 93d8 1bbd
00000260: a861 cd3d d3c3 813d 6342 873d 9dbc 4dbe
00000270: 6652 0fbd 4fc9 db3d 2617 7c3d 51c4 cd3c
00000280: e72f c0bd 0979 ed3d b1ec 5cbd 2bab dabd
00000290: 931d 13be 834c a93a 1753 24be c8b9 f13d
000002a0: dec8 133c e6fb 5abd f6e1 373e c3b9 0d3a
000002b0: 1ecc ee3c 004f 223e 998c 243d f69f 59bc
000002c0: f218 493e 6341 18be 8a7c b83d fd41 483d
000002d0: beb2 5dbd 7178 763d d3e8 243c 7d30 06be
000002e0: 49d8 27be 382e cabd 012b 363e 7341 133e
000002f0: 7f75 0dbd 2f44 c93d 4111 f53d 7044 323e
00000300: e1d8 7a3d 681a 343e dbe7 8fbd 2c65 6e3d
00000310: b5c6 edbd bbcf 32be 7a7f fabc 1345 42be
00000320: 3890 973d a9b9 0b3e 76e1 273d 61c3 56be
00000330: b021 903d 99ad 383e cb42 ce3c 9f56 52be
00000340: a775 73bd 78fc 333e fa85 ddbd 6a73 36be
00000350: 1c4c 113e a1a0 1f3e f668 bf3b 2301 3e3e
00000360: ece3 17be 5c75 183e e7c9 39be df48 a1bd
00000370: a065 293e 4154 ebbd 568f 1ebe 53a5 383d
00000380: 9e36 653e 36d1 91bd 073d 51be eaa4 d83d
00000390: 0c2b 343e c150 f9bd fa55 cbbd 8f16 ad3d
000003a0: db31 5b3d aaf4 18be cb79 a0bc 3723 4e3d
000003b0: 87eb 2439 c769 173e 9967 f63d c828 9e3c
000003c0: fc73 123e 5eaf 55be 06c0 483d 85b4 a0bb
000003d0: 95f6 e2bd 5150 49bd cf92 37bd 2e1e 39be
000003e0: 9a1d 023c ccce 603e 5035 15be cf47 0cbd
000003f0: 5872 4ebd 60a1 0bbe 5918 be3d 1a18 54be
0.011026209 0.0136281075 0.009978169 -0.16158248 -0.06472338 0.050065376 -0.08145307 0.20619452
-0.048452508 -0.045187406 -0.1172725 0.09642475 0.19791532 0.17536843 -0.17588577 -0.006509909
-0.06562277 -0.046702642 -0.19021212 0.21100761 0.16709536 -0.16858944 0.11424148 -0.073731825
0.18811 -0.012478513 0.09926923 -0.037506633 -0.065331906 -0.20653594 -0.16402252 0.19585507
0.19006802 0.20236047 0.16500065 -0.18317047 -0.12215159 0.049751148 -0.1808175 0.00949571
0.08487573 -0.051979546 0.01518806 0.021189716 -0.057392906 0.023738386 0.044316165 -0.16884446
0.17584828 0.2109318 -0.16238394 -0.054808352 -0.006372857 -0.0068533625 -0.092877045 0.023076639
0.075191595 0.049779423 0.12346064 0.035977382 0.064073645 -0.00993575 -0.06277383 0.07605216
0.15218645 -0.017500132 -0.168682 0.08864865 -0.15799521 0.06781899 0.20090494 -0.14083317
-0.011691079 0.18475688 0.06738994 0.18159068 -0.09935248 -0.037187178 -0.12278955 -0.12726861
0.04000271 0.16145803 0.18483956 -0.068493254 0.1610875 -0.15236558 -0.21021785 0.018933194
0.18090138 0.17281552 -0.15923482 -0.05117622 0.18527594 0.092369 -0.006525543 -0.08138532
0.13243926 0.15441766 0.13735001 0.089652136 -0.097604275 -0.19012408 0.18445702 0.045991104
0.045958024 0.06615137 -0.086248875 -0.1450336 0.10478094 -0.036951844 -0.20094787 -0.06055424
-0.04121736 -0.14879338 -0.16000831 -0.039031968 -0.17627496 0.113291405 -0.18690796 -0.10472794
-0.15671699 -0.080023974 -0.18674627 -0.055313773 -0.13910992 0.116221435 -0.18249165 0.2065265
0.2023428 0.054345366 -0.032821655 -0.11818385 -0.09157235 -0.1414652 0.031420354 0.19054858
-0.06313267 -0.08898047 0.03189508 -0.20824996 -0.06223708 -0.14378528 -0.14273815 -0.042625334
0.16435908 0.08829533 0.06808923 0.17863648 0.10489106 -0.0150038265 0.033286747 -0.03804834
0.10028392 0.06336179 0.06604459 -0.20091482 -0.03499069 0.10731756 0.061545514 0.025118025
-0.09384137 0.11595351 -0.053936664 -0.10677179 -0.1436675 0.0012916479 -0.16047321 0.11803013
0.009020058 -0.053462885 0.17957291 0.0005406404 0.029150065 0.15850449 0.040173147 -0.013282767
0.19638422 -0.14868693 0.09008129 0.048891056 -0.05412554 0.060173456 0.010065275 -0.13104434
-0.163911 -0.09872097 0.17789842 0.14380436 -0.03453588 0.09827458 0.119661815 0.1740892
0.061241988 0.17588198 -0.07026645 0.058201954 -0.11610166 -0.17462055 -0.030578364 -0.18971662
0.074005544 0.13645042 0.0409865 -0.20972969 0.070376754 0.18034972 0.025178334 -0.20540856
-0.059438374 0.17576778 -0.108165696 -0.17817464 0.1418919 0.15588619 0.0058413697 0.18555121
-0.14833039 0.14888519 -0.18143426 -0.07875227 0.16542673 -0.114906795 -0.15484366 0.04507954
0.22384116 -0.07119982 -0.20433436 0.1057833 0.17594546 -0.12173606 -0.09928508 0.08451568
0.053514343 -0.14937082 -0.019589325 0.050326552 0.00015728 0.14786445 0.120314784 0.019306555
0.14302057 -0.20867679 0.049011253 -0.004904332 -0.11082188 -0.04914886 -0.044817742 -0.18077919
0.007941628 0.21953887 -0.14571118 -0.03424817 -0.050402015 -0.13635778 0.09281988 -0.20712319

fc2.weight f4 [256, 514]
00000000: 4883 1bbd c49b 28bd 3ab6 38bc 43b1 01bd
00000010: 14f2 adbc a3a8 683d a91c 44bd 237f 01bd
00000020: 5864 d4ba 6c74 f93c b3a1 4d3d 9535 703d
00000030: 31b0 f03c 067d 9d3b 9ede c3bd dae0 183d
00000040: be7d b83c 5676 68bc d734 4b3c 54a5 b53c
00000050: 5eba 5dbd 355c 873d a5a6 28bd 1143 4d3d
00000060: 0db0 013d feb1 003d be24 cabc cfd9 d9bc
00000070: bbf4 b1bc bea4 b0bc dfe3 cebc 5f22 f3bc
00000080: d0c9 9bbc ff9a be39 7dbe 503d c53b 763d
00000090: 3db6 6c3d d480 98bc d379 5bbd abf8 49bd
000000a0: c3ef 5ebd b57f 973b ccc2 b9bc 5f73 9c3c
000000b0: 8837 f1bd 80da 433d 6937 c9bc da4e 65bd
000000c0: 6198 093d 8437 3cbd 2ac7 d638 ee90 283c
000000d0: a11d 013d c052 ad3b e751 0e3c ba4b 87bd
000000e0: c838 a6bc 949a 4cbc ca24 abbd d9f9 b23d
000000f0: 393a fa3c 7dd5 77bd 0ba2 19bd 8c4a c4bc
00000100: eab4 393d 2f9d f43c 7dab e73c 3695 49bd
00000110: b1a4 cebb 1f82 6a3d 9495 15bc 241a 913d
00000120: 658e 85bd e3a6 bd3b 69c4 68bc d3f2 86bb
00000130: 6e9d 28bd c2dd 793c dbdc 36bc 5be4 44bd
00000140: 7453 c13c 334e 033c 94e1 01bd b908 e5bd
00000150: 0b1b 8dbc 1ffb 283d bb20 c9bc 6843 7abd
00000160: 6f9e 15bd 6076 20bd fc0d 373c dae7 e1bc
00000170: c016 52bd 990a 353d d4b1 f53b 2903 153c
00000180: 5d38 383d 4825 6fbc 64cb babc fc88 81bd
00000190: b18d 89bd 67d5 6cbc bc45 213d 582b 1a3c
000001a0: bedb d8bc d27d 07bd a501 323d 54f8 acbd
000001b0: 2a5e 873d 9430 94bb 031b 93bd d7eb 913d
000001c0: 2707 22bc 7eff e0bd c31a 353d a3c9 4c3d
000001d0: 124b 8f3a f056 12bd 5d1c 333d 53a5 413d
000001e0: a502 4d3c 0620 d5bc 463d 733c 8552 38bd
000001f0: 4de8 af3c 2e00 7f3d 923b 57bb a49d d4bc
00000200: 08ce 1f3d 1499 6abc 45e3 4bbd 0ab1 953b
00000210: 1772 bebc e33e 3b3d d44e 8b3c efe8 dabc
00000220: bada c83b 5e73 12bd cd42 133d 6326 ebbc
00000230: b294 003d 0162 873b aa16 f63c b41e 183d
00000240: be07 0a3d ca3a 6e3d 2a3d 16bc ff8c 99bc
00000250: d331 783d f529 a93d 8487 463c a3bf 59bb
00000260: 1b7d 713d 974b f13b 312c 603d 8888 12bd
00000270: a969 0cbd e3b1 f53b 3cc3 29bd 9e94 d5bc
00000280: 26da fd3c 69f6 043c 9af3 0c3d 3cd4 03bd
00000290: 6908 e83c 26e2 fb3c 44e2 453d e5a7 7f3c
000002a0: 371d b23c 545c 1a3d a570 2a3d 9e6a 433d
000002b0: 9263 0fbd 55a5 0ebd 96ce e93c e41b dbbc
000002c0: b142 52bd c141 01bd c422 163d 1800 1bbd
000002d0: 95ef fcbb e36c 0abc 646b 543c 67e7 dfbb
000002e0: acc6 61bd cf54 543d f515 c43b 2212 4d3b
000002f0: b6e1 1d3c 0539 a43b 57bf cf3c f81c 4c3d
00000300: 0dc0 8cbd 1f11 26be ca06 8c3d e424 61bc
00000310: 0477 8ebc 9047 38b9 8d68 bf3c fdc2 eabb
00000320: 2a3b 9c3b d839 f83c 5c05 4d3d f9b6 893d
00000330: dd42 c93c ffa1 893d d2bf 6bbd 7e6e 283d
00000340: 86ca 25bd 9e4d c93b 538e 1dbd 1970 d5bc
00000350: b046 803d dc41 65b7 40ad e0bb 7b23 6cbd
00000360: 668f 93bd 4c1d 58bd 4e1c bc3c edad 483c
00000370: 833d 56bd 1bcc 9d3b d9eb 2fbd 1db6 7bbd
00000380: 6b50 3ebd 9ff7 32bb 3782 6f3c 329d 153d
00000390: daca 3d3d d266 013d d11b 36bd 55db 833d
000003a0: f1bc 06bd a2e6 42bd c896 63bd 6616 cb3c
000003b0: 2684 083d a51b 513d b1f6 c0bc 9fcb 36bd
000003c0: 2d8a 30bd a43d dcbc fe7a 163d 14b6 a4bd
000003d0: 50b0 8cbd 7f0a b93b 336a 2fbd 3738 883a
000003e0: b71f 87bd faeb e33c 801b 7e3d a539 b3bb
000003f0: df1a 20bd 7659 81bc 3562 3fbd 017a 5c3d
-0.037966996 -0.041164175 -0.011273915 -0.03166319 -0.021233596 0.05680145 -0.047878895 -0.031615388
-0.0016204221 0.030451022 0.050203037 0.05864485 0.02938089 0.0048061637 -0.09563945 0.03732381
0.022520896 -0.01418837 0.012402735 0.022173561 -0.05413281 0.06609384 -0.04117455 0.050112788
0.031662036 0.031419747 -0.024675723 -0.026593117 -0.021723142 -0.02156293 -0.025255142 -0.029679475
-0.01901713 0.00036355105 0.050962914 0.060115594 0.057790983 -0.018616118 -0.053582978 -0.049309414
-0.054427873 0.004623378 -0.022675894 0.019097982 -0.1177817 0.0478158 -0.024562554 -0.0559834
0.033592585 -0.04595138 0.000102414124 0.01028846 0.031522397 0.0052894056 0.008686519 -0.066062406
-0.020290747 -0.012488026 -0.08356626 0.08739061 0.03054534 -0.060506333 -0.03750805 -0.023961328
0.04533855 0.029860107 0.028280014 -0.049214564 -0.006306254 0.057253 -0.0091299005 0.07085064
-0.065213 0.0057877167 -0.014206984 -0.0041183024 -0.04116576 0.015250625 -0.0111610545 -0.04806934
0.023599364 0.00801425 -0.03170927 -0.11183304 -0.01722481 0.041255113 -0.02455174 -0.06109944
-0.036528047 -0.03917539 0.011172768 -0.027576376 -0.051291227 0.04419956 0.0074980054 0.009094992
0.044975627 -0.014596291 -0.022802062 -0.06324956 -0.067164786 -0.014455176 0.039373145 0.009409748
-0.026471969 -0.033078976 0.0434586 -0.08445802 0.06609757 -0.0045223925 -0.071828865 0.07125061
-0.009889401 -0.10986231 0.044214975 0.049996983 0.0010932407 -0.03572744 0.04372822 0.047276806
0.012512838 -0.026016247 0.014846152 -0.04500057 0.021473074 0.06225603 -0.0032841903 -0.025954075
0.039014846 -0.014318723 -0.049777288 0.004568224 -0.023247762 0.04571427 0.017005362 -0.0267224
0.00612959 -0.035754554 0.035952378 -0.028704828 0.031391807 0.004131556 0.030040104 0.037138656
0.03369879 0.058161534 -0.009169856 -0.01874399 0.06059439 0.08259956 0.01211727 -0.0033225797
0.0589572 0.0073637473 0.054729644 -0.035774738 -0.034280453 0.0074980124 -0.041445956 -0.026071843
0.03098781 0.008115389 0.034412004 -0.032184824 0.028324323 0.030747484 0.048311487 0.015603994
0.021742446 0.037685707 0.041611332 0.0477091 -0.035007067 -0.03482564 0.02854089 -0.026746698
-0.051333133 -0.03155685 0.03665425 -0.037841886 -0.00771899 -0.008448812 0.012965057 -0.006833005
-0.05512111 0.051838692 0.005984063 0.0031291326 0.009636333 0.00501168 0.025359793 0.049832314
-0.06872568 -0.16217469 0.068372324 -0.013741706 -0.017390735 -0.00017574267 0.023365283 -0.0071643577
0.004767795 0.03030102 0.05005394 0.067243524 0.024568016 0.067203514 -0.05755598 0.041121
-0.040476345 0.006143286 -0.03846581 -0.026054429 0.062634826 -1.3664798e-05 -0.0068565905 -0.057651024
-0.072050855 -0.052762315 0.022962715 0.012248498 -0.052304756 0.004815591 -0.04294953 -0.061452974
-0.04646341 -0.0027308238 0.014618448 0.036526866 0.046336032 0.031592198 -0.04446012 0.06438319
-0.032895032 -0.04758323 -0.055563718 0.024790954 0.03332915 0.051051755 -0.023555132 -0.044627782
-0.043100525 -0.026884861 0.03673839 -0.08042541 -0.068695664 0.005647003 -0.04282589 0.001039273
-0.06597846 0.027822483 0.062037945 -0.0054695182 -0.039088126 -0.015789729 -0.046724517 0.05382729

fc2.bias f4 [256]
00000000: 6137 29bd d838 e2bc 10e2 803c e7b8 91bc
00000010: 4381 f9bc c120 803c e516 89bc 2d4a bf3c
00000020: 2c38 22bc 7a9d 11bd c290 03bd 780c 73bc
00000030: a2d3 95bc 722b 0dbc 7e74 283d c831 2abc
00000040: e3eb c7bc 01b4 c83b 4be6 55bc 7a06 0bbd
00000050: 5a10 08bd 7809 bc3b 5655 10bd 9042 47bd
00000060: 892b 2fbd 0416 31bd f423 44bd d696 e0ba
00000070: 3d6c 8339 35bb acbc 94f3 233d c9a7 073d
00000080: 081e 74bc 329f a83c c69b 2d3c 2b5e 63bc
00000090: d207 e8bc 07df cb3b 8d06 fcbc a310 093c
000000a0: 37b6 40bd 8f1b 213c 5534 2fbd 589b 62bd
000000b0: 6cff 213d 44aa b1bc 5893 24bd 676f bd3c
000000c0: 544d 42bd 0415 25bd 1124 adbc f727 91bb
000000d0: 9596 32bc 4e52 ac3b 72d5 823c 8645 a0bc
000000e0: 8c4c 0abd 1ecd 18bc 45fe d03c d4ec 363c
000000f0: 6ef4 053d b0b5 f43c f5fe 813c 5a2a 153c
00000100: b861 e2bc fc59 29bd fc42 ec3b bef3 153b
00000110: d82a bd3a d24f 943c 1adb 3bbd a9f8 4ebd
00000120: bded 04bd a17a e7bb 382f 133c eb19 0f3d
00000130: d6fd 19bd d154 97bc 96f2 0d3d 420a 933c
00000140: 5f8a b13c aa01 dcbc 3c1a dfbc cae5 00bb
00000150: 98c0 8abc 7c63 80bc 47da 2cbd 1653 6cbd
00000160: f4d6 55bc 25fc 2dbd b9ed b4bc 5d1f 4a3c
00000170: 3513 c73c f045 0e3d 137d 113d b8b5 3bbd
00000180: 912f 1cbd 4885 cb3b ca5d 203d 43bc d73b
00000190: beb6 c4bc bd08 b43a ab43 053d 21b2 35ba
000001a0: eb3a 753c 42c3 2cbd e8ad 03bc c211 a33c
000001b0: 0dda d0bc ba54 38bd b7e2 ba3c c582 b53c
000001c0: b7e1 ca3c cd5b a33b 9e8f cb3b 4bed 38bd
000001d0: 113a 11bc e382 50bb 8a6d fcbc 9736 21bb
000001e0: 3b0f 40bc 6a01 e53b 274f f23c 429c 953c
000001f0: 137e 553c 4c8a 6bbc 73dc 2abd 59f3 0bbb
00000200: 90f3 35bd 7fe1 0bbd d7d9 87bb 4e76 563c
00000210: 2d25 753c 4bad 363d 57a9 89bc 5f22 25bb
00000220: dea9 4c3c b350 763c 78ba b83b bc58 44bd
00000230: 2d12 6cbc 1ff1 04bc 2d5e 62bc a0d8 99bc
00000240: a336 e3b9 4315 eabb cc37 0abd 250f ccbc
00000250: 75b1 5abd e32d f63c c52e b33c 8cc6 95bc
00000260: 3123 053d df4c b7bc 0381 58bd 9b47 8d3b
00000270: 3426 d73c 29d8 023d fc3b 0dbd 53fb 5fbd
00000280: ba08 04bc 71ac 923c 601a a03c 04fe 17bd
00000290: 9bd9 983b be7e 83bc a8ee c63c 328b f3bb
000002a0: 10f5 13bd b653 8f3c d085 aabc 2cbb 043d
000002b0: 047b 943b 14b4 e4bc 53db 47bd 89fe d83a
000002c0: 9a45 4a3b 1f04 89bc ab0f d93c fd91 0a3d
000002d0: 5a22 0ebc 4bc6 56bd 4ac3 983c 01bb 003c
000002e0: 44a0 793c e74a 873c cb65 4abc 3de0 8fbc
000002f0: 0430 89bc 9e27 65bc 89eb 55bb ebb2 2f3c
00000300: 759e 54bd fa13 3a3b 1734 a93b 35d2 3cbd
00000310: 0335 10bc 63ad 3c3c eb63 49bb 4a72 16bd
00000320: 637c babc 5cfb 3fbc f1f1 d0bc 4233 553c
00000330: 3781 68bc 877c 34bc 8463 a53c 4766 a8bc
00000340: 9480 7e3c a819 67bc 3712 adbb 9ad8 cebc
00000350: 3ef0 e53c d391 b13c 7d8d 8bbc 161a 1b3d
00000360: 8337 203c a58b 7fbc 71fc edbc 3311 e0ba
00000370: 5141 8a3c fc1c 573c 2917 35bd 76fd 013d
00000380: 1f45 1a3d 41af 1d3d 4146 02bd 84f8 69bd
00000390: 0c55 22bd c17b 0f3d 066e 41bd 7b9c 57bd
000003a0: 1266 2dbd 6132 c9bc c1bc 173c f533 81bb
000003b0: 4b93 ecbc fb27 02bd e17f 1dbd aaf8 ea3c
000003c0: a578 d93c 5de1 f5bc 76e9 97bc c19f ba3c
000003d0: ad5b 903c 669f f83c 2665 d73a 7477 3fbc
000003e0: f80b 81bc f9a6 f33c 51fc 423d 42dd 00bd
000003f0: e200 713b 1a1a 3fbd 6744 2d3c ae13 113d
-0.04131258 -0.027614996 0.015732795 -0.017788364 -0.030457145 0.015640618 -0.01673455 0.0233508
-0.009901088 -0.035550572 -0.032120474 -0.014834516 -0.018289391 -0.008616315 0.04112672 -0.010387845
-0.024404472 0.0061249738 -0.013055394 -0.033941723 -0.03321872 0.0057384335 -0.035237633 -0.048647463
-0.042766128 -0.043233886 -0.04788585 -0.0017134796 0.0002506691 -0.021085361 0.040027216 0.033118997
-0.014899738 0.020583723 0.010596221 -0.013877432 -0.028324042 0.0062216553 -0.030764842 0.008365783
-0.047048774 0.009833231 -0.042774517 -0.05532393 0.03955023 -0.021687634 -0.04017958 0.02312441
-0.047437027 -0.040303245 -0.021135362 -0.004429813 -0.010900159 0.005258835 0.01597092 -0.019564401
-0.033764407 -0.0093262475 0.02551187 0.011164863 0.03270381 0.029871792 0.015868643 0.009104336
-0.027634487 -0.04134558 0.0072101336 0.0022880877 0.0014432324 0.018104468 -0.04586325 -0.05053011
-0.032453287 -0.007064179 0.008983426 0.034936827 -0.037595592 -0.01847306 0.034655176 0.017949227
0.021672426 -0.026856262 -0.02723419 -0.0019668215 -0.016937539 -0.015672438 -0.042200353 -0.057696424
-0.013051737 -0.042476792 -0.022086011 0.012336579 0.02430115 0.034734666 0.03551967 -0.045827597
-0.0381313 0.0062109567 0.039151944 0.006583722 -0.02401292 0.0013735514 0.032535236 -0.00069311453
0.01496766 -0.0421784 -0.008037068 0.019905929 -0.0254946 -0.045002677 0.022813184 0.022157082
0.024765832 0.0049853087 0.006212189 -0.045148175 -0.008863942 -0.0031816296 -0.030813951 -0.0024599188
-0.011722381 0.006988694 0.029578758 0.018262986 0.013030547 -0.014376234 -0.041714143 -0.0021354763
-0.044421732 -0.034150597 -0.0041458416 0.0130897295 0.014962477 0.04459886 -0.01680438 -0.0025197489
0.012491671 0.015033889 0.005637463 -0.047936186 -0.01440863 -0.008114128 -0.013816399 -0.018780053
-0.00043337521 -0.007143648 -0.03374462 -0.024909565 -0.053391892 0.030051177 0.021872887 -0.018283151
0.032504264 -0.022375522 -0.05285741 0.0043115146 0.026263334 0.031944428 -0.034481034 -0.05468304
-0.008058721 0.017904492 0.019543827 -0.037107483 0.0046646125 -0.016051646 0.024283722 -0.007432365
-0.03612238 0.017495971 -0.02081576 0.032405064 0.004531266 -0.0279179 -0.04879315 0.001655535
0.003086424 -0.016725598 0.026496729 0.03383063 -0.008675182 -0.0524352 0.018647809 0.007857085
0.015235964 0.016515208 -0.012353371 -0.01756298 -0.016746528 -0.013986496 -0.003264161 0.01072381
-0.05190893 0.0028393255 0.0051636803 -0.046098907 -0.0088017015 0.011515948 -0.0030729722 -0.03673009
-0.02276439 -0.011717644 -0.025505992 0.013012709 -0.0141909635 -0.011016018 0.020189054 -0.020556582
0.015533585 -0.014105238 -0.0052817124 -0.025249768 0.028068658 0.02167598 -0.01703524 0.037866674
0.00977886 -0.015597259 -0.029051038 -0.001709497 0.016876848 0.013129469 -0.04421154 0.03173586
0.037663575 0.038497213 -0.03180528 -0.05712177 -0.03963189 0.03503013 -0.047224067 -0.052639466
-0.04233367 -0.024560155 0.009261311 -0.0039429613 -0.028878829 -0.03177641 -0.038452033 0.028683025
0.026546786 -0.030014688 -0.01854394 0.022781255 0.01762184 0.030349445 0.0016433343 -0.011686195
-0.015752777 0.029742705 0.04760391 -0.031461008 0.0036774208 -0.04665575 0.01057539 0.03541916

fc3.weight f4 [1, 256]
00000000: 8858 823f 67c9 453f 527a 813f 7e91 7b3f
00000010: 742a 633f ee59 133f 5615 fd3e 9955 583f
00000020: d4cc f43e e6be 313f c775 793f 948b 843e
00000030: 487d 7b3e 9e30 253f 395b c63e d193 b23e
00000040: 8b1f 253f 58f9 f23d 2422 923e 214d 303e
00000050: a683 973e fd6d c43e 2578 563f 03c8 9c3e
00000060: 4cec 653f 9389 493f 4de0 9f3e 8811 503f
00000070: f278 2d3f c728 da3c 9d98 493e 59e7 783f
00000080: 6fb5 5d3f 4638 833f 88b4 6f3f 35d2 223f
00000090: 72e6 9e3e 2954 813e ee32 dd3e e99e 273f
000000a0: ea9b 623f 4b37 eb3d 6df6 d93e 3c4b 6e3f
000000b0: 1874 5b3f 4879 4b3e 2e6b 563f bf0b 9a3e
000000c0: 2409 fb3e 78da 833f 718a 273f b55a 353f
000000d0: 7211 e23e 362e 4a3f 72e9 013e 7bc6 8a3e
000000e0: cf5e da3d cb9b 4b3e fdc9 c13e 6a93 3a3f
000000f0: bc21 933e e1af 563f 4d6f 213f 2453 4f3e
00000100: c088 123e 80a9 b63e 4c47 113e 64e8 df3e
00000110: d6ba f03d 3b9f 253f d8c0 3a3f 27b6 163e
00000120: ad3c 323e f9f9 393f 82a2 e33e 45b6 933e
00000130: 58d7 373f aa10 1e3f 11e3 403f 02fd 543f
00000140: 9037 2b3f 286b f63e a34e e03d ad24 1c3f
00000150: 19e6 c13d f20a 333f 6880 7a3f cf84 f73e
00000160: e11e 4a3f ac2f 643f 9d62 523f dcee 723f
00000170: 5a6c 093f 9384 d83c 0ffb e73e 5cf7 093f
00000180: 2b4f 2e3f 14d0 623f 97c1 213f 0fab 033f
00000190: 586c 773f fc53 533e 6738 ad3d fb87 843d
000001a0: 5742 003f d6f2 1f3f b66b 2c3f b788 2e3f
000001b0: 83f7 473f 4c87 4d3f 408a 3c3f 34af dc3e
000001c0: 02eb 8e3e f253 5f3d 19dd 173f c594 803f
000001d0: 6620 823f a0b3 7d3f 53ca d93e 3e02 403f
000001e0: fce3 453f 1de1 543d baba 463f c7d5 ca3e
000001f0: 5ffc 263f 9ce0 7b3f b9a4 403f f904 073f
00000200: 3c4a 123f fe57 0b3f 881e 143d 705d fa3e
00000210: edad a73e 7459 393f 6e4d 553f 62f6 f13e
00000220: c70e 313f 7891 873e 51cd a13e 2607 4d3f
00000230: 9ae4 6e3f c0a9 803f 1835 123f fe3d da3e
00000240: 742a b33e 42d7 473f 7063 833e 05c4 6c3f
00000250: 69ed 063f 5327 b93e 147d 673f 88ea 073f
00000260: 3954 373f 205c 5a3d cfc0 383f 9588 883f
00000270: 4fc7 013f bb35 f83e 9cf7 6b3f c8f7 0d3f
00000280: c8d3 b03d 9db0 a53e a3f5 8f3e d037 193d
00000290: 2b22 1a3e 325d 5c3e 0231 473e 187e 803f
000002a0: 3b9e 143f afd1 913e 760d fb3e b653 253f
000002b0: 38c6 3d3f 380d 5c3f 2353 5c3e c6f3 3c3f
000002c0: 1b58 873e c116 303f fb53 e33e fd25 073f
000002d0: 973c 443f dab6 ff3e 3eb6 2e3f c48b 753e
000002e0: 792b 7e3d a405 d13e ec21 583f b863 dd3e
000002f0: 90b4 b23e a1dc 9b3e 14e3 233d 8ea7 4b3e
00000300: 2cda 2c3f 5c6b 063f b911 503f 5755 983e
00000310: 2678 ef3e bf33 953e d8dc 983e b57e 833f
00000320: 48a0 333f fc7f 1d3f 0bec 363f e648 0d3f
00000330: 6a6b d13e 4209 253f 2213 073f bd9b 393e
00000340: b848 573f 4bb8 753f 45e7 4f3f cd27 543f
00000350: afb8 cd3e 4a81 953e 3e78 0f3f 6d73 5b3f
00000360: d89a 8d3e 18a4 733e 6e3e 153f 83f1 0b3f
00000370: 732d 4c3f 9bd1 e13d f1c2 653e 3ad6 7e3f
00000380: 80de d73e 528c a43d 71bd 5e3f 7ae2 313f
00000390: a54d 633f 314b 1c3f 24dd 003e f315 cc3e
000003a0: cb1c 253e 36cb 373f 9f5a 203f edd1 103f
000003b0: 4da3 2b3f a1dc 503f 55c6 353f ea6e bf3e
000003c0: 74d4 d23e fe6b 703f f7d0 e43e 14e7 ec3e
000003d0: b2cf d83d 19f2 0f3f e990 ed3e b409 633f
000003e0: 2d24 ad3e 22fd 5b3e 6da8 8f3e dca7 3b3f
000003f0: 8619 f03e 2e34 2a3f 24f2 c23e 23ad ee3e
1.0183268 0.7726044 1.0115454 0.9826888 0.88736653 0.57559097 0.4943034 0.8450561
0.4781252 0.6943191 0.9744534 0.2588774 0.2455951 0.6452731 0.38741472 0.348784
0.64501256 0.11863965 0.28541672 0.17216922 0.29592627 0.38365164 0.83777076 0.30621347
0.89813685 0.78725547 0.31225815 0.8127675 0.6776267 0.026630772 0.19687124 0.9722801
0.8660497 1.0251548 0.93634844 0.63602 0.3103519 0.25259522 0.4320292 0.6547685
0.88519156 0.11485156 0.4257082 0.9308355 0.8572402 0.19870484 0.83757293 0.30087087
0.4903041 1.0301046 0.6544562 0.7084153 0.44153935 0.7897676 0.12686709 0.27104554
0.106626146 0.19883649 0.37849417 0.72881186 0.28736675 0.8386212 0.63060457 0.2024656
0.14309978 0.35676193 0.14187354 0.43731987 0.11754386 0.6469609 0.72950506 0.14717923
0.17405958 0.72647053 0.4445992 0.28849998 0.71812963 0.6174418 0.75346476 0.8319856
0.66881657 0.4812863 0.10952499 0.6099346 0.09467716 0.69938576 0.9785218 0.48343512
0.7895337 0.8913524 0.8218172 0.9489572 0.53680956 0.026430404 0.4530873 0.53893065
0.6808955 0.8859875 0.6318602 0.5143289 0.96649694 0.20637506 0.084580235 0.06471249
0.50101227 0.62479913 0.67351854 0.6817736 0.7811205 0.8028457 0.7364845 0.4310242
0.27913672 0.054523416 0.59321743 1.0045401 1.0166137 0.9910221 0.42537174 0.7500342
0.77301 0.051972497 0.7762867 0.39616224 0.6522884 0.983896 0.75251347 0.5274196
0.5714452 0.5443114 0.03616193 0.48899412 0.32749882 0.7240212 0.83321273 0.47258288
0.69163173 0.2647817 0.31601956 0.8008903 0.9331757 1.0051804 0.57112265 0.4262542
0.34993327 0.7806283 0.25661802 0.924866 0.5270601 0.36162814 0.9042523 0.5309224
0.7161289 0.053310513 0.721692 1.0666682 0.50694746 0.48478493 0.92174697 0.5545621
0.08634144 0.32361308 0.28117093 0.037406743 0.15052097 0.21519926 0.19452289 1.0038481
0.5805394 0.28480288 0.49033707 0.6458086 0.7413058 0.8595767 0.21516089 0.7380947
0.26434407 0.6878472 0.4440001 0.5279234 0.7665495 0.49944192 0.6824683 0.23979098
0.062053178 0.40824616 0.8442676 0.43240142 0.34903383 0.30441764 0.04001148 0.19888136
0.67520404 0.5250757 0.8127704 0.2975261 0.46771353 0.29141042 0.2985599 1.0273043
0.70166445 0.61523414 0.71453923 0.5518936 0.40902263 0.6446725 0.5276357 0.18125816
0.84095335 0.95984334 0.81212264 0.8287323 0.40179965 0.29200202 0.5604285 0.85723
0.276572 0.23793066 0.58298385 0.5466539 0.7975685 0.11026307 0.22437645 0.99545634
0.42161942 0.080345765 0.87007815 0.694862 0.8879035 0.61052233 0.12584358 0.39860496
0.16124265 0.7179445 0.62638277 0.5657032 0.6704605 0.81586653 0.71005756 0.37389308
0.41177714 0.93914783 0.44690678 0.4627005 0.1058649 0.56228787 0.4639962 0.8868668
0.33816662 0.21483281 0.28058186 0.7330301 0.46894473 0.6648587 0.38075364 0.46616468
