checkpoint_actor.pth (torch, 83332 bytes, 10 tensors)

bn1.weight f4 [24]
000000 00 00 80 3f 00 00 80 3f 00 00 80 3f 00 00 80 3f
       1.0 1.0 1.0 1.0
000010 00 00 80 3f 00 00 80 3f 00 00 80 3f 00 00 80 3f
       1.0 1.0 1.0 1.0
000020 00 00 80 3f 00 00 80 3f 00 00 80 3f 00 00 80 3f
       1.0 1.0 1.0 1.0
000030 00 00 80 3f 00 00 80 3f 00 00 80 3f 00 00 80 3f
       1.0 1.0 1.0 1.0
000040 00 00 80 3f 00 00 80 3f 00 00 80 3f 00 00 80 3f
       1.0 1.0 1.0 1.0
000050 00 00 80 3f 00 00 80 3f 00 00 80 3f 00 00 80 3f
       1.0 1.0 1.0 1.0

bn1.bias f4 [24]
000000 00 00 00 00 00 00 00 00 00 00 00 00 00 00 00 00
       0.0 0.0 0.0 0.0
000010 00 00 00 00 00 00 00 00 00 00 00 00 00 00 00 00
       0.0 0.0 0.0 0.0
000020 00 00 00 00 00 00 00 00 00 00 00 00 00 00 00 00
       0.0 0.0 0.0 0.0
000030 00 00 00 00 00 00 00 00 00 00 00 00 00 00 00 00
       0.0 0.0 0.0 0.0
000040 00 00 00 00 00 00 00 00 00 00 00 00 00 00 00 00
       0.0 0.0 0.0 0.0
000050 00 00 00 00 00 00 00 00 00 00 00 00 00 00 00 00
       0.0 0.0 0.0 0.0

bn1.running_mean f4 [24]
000000 a2 d9 19 c1 b4 4d 01 be 89 19 2c 3f 51 c3 98 3c
       -9.615633 -0.12627298 0.67226464 0.018647822
000010 70 ba df 3c 72 f7 78 40 89 19 2c 3f 51 c3 98 3c
       0.02731058 3.8901029 0.67226464 0.018647822
000020 0a 97 1a c1 af 4d 00 be e9 86 44 3f 77 4b 8c bc
       -9.661875 -0.12529634 0.76768357 -0.017125828
000030 2f 23 0e 3d a7 21 79 40 e9 86 44 3f 77 4b 8c bc
       0.034701522 3.892679 0.76768357 -0.017125828
000040 ce 6a 1b c1 94 34 0b be 2c be 69 3f bf e2 2c bd
       -9.713575 -0.13594276 0.91305804 -0.04220843
000050 33 ae 55 3d 6c 64 7a 40 2c be 69 3f bf e2 2c bd
       0.052168082 3.9123793 0.91305804 -0.04220843

bn1.running_var f4 [24]
000000 ec 26 d1 40 72 92 2f 3f d1 15 1a 43 63 94 8f 41
       6.536001 0.6858283 154.08522 17.947454
000010 4c 11 f3 41 57 e7 17 40 d1 15 1a 43 63 94 8f 41
       30.383446 2.3734949 154.08522 17.947454
000020 f0 d6 c3 40 59 18 2e 3f 1f 09 1d 43 4c 2e 94 41
       6.1199875 0.680059 157.03563 18.522606
000030 e9 09 f8 41 1a 6c 13 40 1f 09 1d 43 4c 2e 94 41
       31.004839 2.303473 157.03563 18.522606
000040 2e 2b b4 40 0e b3 34 3f 90 37 1c 43 38 31 94 41
       5.630271 0.70585716 156.21704 18.524033
000050 53 79 fe 41 f2 69 0f 40 90 37 1c 43 38 31 94 41
       31.80924 2.2408414 156.21704 18.524033

fc1.weight f4 [128, 24]
000000 72 a7 f2 bd dc d8 61 3f 90 c1 1b 3d 22 33 cc 3e
       -0.11848344 0.88221526 0.038026392 0.3988276
000010 ff f4 2f bf 48 67 91 bf 03 56 a1 bd 86 c7 9d 3e
       -0.6873321 -1.1359644 -0.078777336 0.30816287
000020 60 f5 e6 3c 84 f4 93 3f e6 02 e3 3c 09 ed 3b bd
       0.028193176 1.1558995 0.027711343 -0.04588035
000030 e9 d4 40 be 0e 14 75 bf b6 23 9e 3c 90 eb 49 bd
       -0.18831219 -0.95733726 0.019304138 -0.049296916
000040 31 2f 22 bd b8 94 5e 3f 22 63 0f 3d e1 1b b7 be
       -0.039595786 0.86945677 0.03500665 -0.35763457
000050 ca 10 97 3e c0 fa 4b bf b6 51 eb 3c 2b f7 60 be
       0.29504997 -0.7967949 0.028725486 -0.21969287
000060 39 c9 c3 3e 19 fa 44 3f ed 82 35 be 43 4b 50 3d
       0.38239458 0.7694412 -0.17725725 0.050853025
000070 d8 48 8b be f2 d3 32 be e2 7f fb bd c8 1e d6 3b
       -0.27204013 -0.17463663 -0.12280251 0.006534431
000080 7a fe c4 3e aa 5f 1d 3f 37 d1 18 bd 8a ee a5 bd
       0.384754 0.61474097 -0.037308898 -0.08102138
000090 38 3f af 3e fc 2f c2 3d da 67 b6 3c b3 24 57 be
       0.3422792 0.094818085 0.022266317 -0.21010093
0000a0 96 12 9a 3e 01 2b 59 3f 3e 8f ab 3d 42 9d 1a bd
       0.30092305 0.84831244 0.08376931 -0.03774763
0000b0 23 d6 08 3f 02 03 87 be a1 d6 27 3d 4d 81 2a bd
       0.53451747 -0.26369482 0.04097617 -0.041627217
0000c0 c6 6a c4 be 9d 58 b5 3c bc 2f a4 3c 8a 9f ce 3d
       -0.38362712 0.02213698 0.020042293 0.100890234
0000d0 48 78 a3 be bb b8 9a 3e 55 05 1b be e2 2d 17 3d
       -0.31927705 0.30219063 -0.15138753 0.03690899
0000e0 3c d3 6d be 70 70 ba 3e 59 08 df bd d4 9a 12 3e
       -0.23225111 0.36413908 -0.10890264 0.14316875
0000f0 39 a2 bc 3d 45 44 3e bf 79 1b ef bd cd 52 3a 3e
       0.09210629 -0.7432292 -0.11675162 0.18195648
000100 cb 93 49 be 7b 56 be 3c e4 31 16 3d 72 c3 17 3d
       -0.19685285 0.023234596 0.036668673 0.037051626
000110 38 7b 4c 3f 71 74 a3 bf bc 56 30 3e 81 0e 1d 3e
       0.79875517 -1.276991 0.17220587 0.15337564
000120 fa 9e 1c 3f ab 5d c4 ba c6 79 4c bd 60 86 26 3e
       0.6118008 -0.0014981529 -0.04992082 0.16262197
000130 06 53 b2 3d ec 1d 95 be 2c f8 b6 3b 4c fe 17 3e
       0.08707242 -0.2912439 0.0055837836 0.148431
000140 c7 75 d2 3e a6 ad 59 be 8f 9a 93 bc 4e c3 c0 3d
       0.41105482 -0.21257648 -0.018018035 0.094122514
000150 fe 2e 17 bf a4 fb ec 3c 73 ac a3 bd 87 07 2e 3e
       -0.5905608 0.028928585 -0.079918765 0.16995059
000160 67 f1 c9 3e 9a fb 83 be 18 98 03 3e 22 6f b6 bd
       0.39441988 -0.25777894 0.12850988 -0.08907916
000170 c3 c4 62 bf 87 60 12 3f be 53 f6 3c 88 2c a9 bd
       -0.88581485 0.5717854 0.030069228 -0.08260447
000180 02 aa 2d 3c 26 b3 72 be 5b 1c 25 bc a0 4d 9b bd
       0.010599615 -0.23701152 -0.010077561 -0.07583165
000190 af b9 ed 3c 46 cc 07 bf c7 db cb 3c 14 7e 71 bc
       0.029019205 -0.5304607 0.024885071 -0.014739532
0001a0 42 cc 23 3d b2 41 6a be c1 55 b4 bd d7 56 18 bd
       0.039989717 -0.22876623 -0.08805419 -0.037192192
0001b0 f3 51 94 3e 56 58 8a bf 49 8f 96 3b db dc 64 3d
       0.28968772 -1.0808208 0.0045947176 0.055874687
0001c0 5d a0 48 3e a5 dc f5 bd 7a 90 8e 3e ec 72 60 bc
       0.19592424 -0.12004975 0.27844602 -0.0136992745
0001d0 cf 56 cb 3e 21 83 e6 bf 52 d7 35 3e 7a 1a 21 bc
       0.39714667 -1.8008767 0.1775792 -0.009832973
0001e0 ec 5e 24 3e 1c 77 d2 be e6 58 39 bd 6d 17 d0 3d
       0.16051835 -0.41106498 -0.045250796 0.10160718
0001f0 65 56 9e 3e 37 4f 46 bf c5 4c 19 3b 6b f7 88 3d
       0.3092529 -0.7746462 0.0023391705 0.06687816
000200 36 8f 0b 3e 15 ae 88 be 39 c8 59 bc 15 08 0a be
       0.1362885 -0.26695314 -0.013292366 -0.13479646
000210 f8 e2 62 3f aa 64 43 bf 5e 2b 47 bd 0a 46 e2 3a
       0.88627577 -0.76325476 -0.048625343 0.0017263305
000220 bc 57 93 3e af 56 99 be 88 f3 b6 bd 0f c2 80 bc
       0.28777874 -0.29948947 -0.08933169 -0.015717534
000230 6f 32 a3 3f 42 8c 0a bf 90 be fd bd b6 7f 63 3d
       1.2749766 -0.54120266 -0.123898625 0.055541717
000240 b5 e4 01 3e 72 91 b6 3e 2c 41 10 3c d5 37 34 be
       0.12684901 0.3565784 0.008804601 -0.17599423
000250 9a 3b 71 3f de d2 8a bf 59 78 56 3d cf 03 4b be
       0.9423157 -1.0845602 0.052360866 -0.19825672
000260 22 1c 33 3e ba 5d b4 3e 64 de 8d 3d 61 78 c7 bd
       0.174912 0.35227758 0.06927183 -0.09739757
000270 d0 19 81 3f a5 44 16 bf a1 0d b0 3d cc 1c 0e be
       1.0086002 -0.58698493 0.085963495 -0.13878173
000280 bb 14 6c be 0d 4c 28 3c cd 31 25 bc cb 0e 00 bd
       -0.23054783 0.010272038 -0.010082674 -0.031264108
000290 2b 96 8e bb f5 e2 24 3f 78 5b a7 3c 62 ff d0 bd
       -0.0043513975 0.6440881 0.020429358 -0.102049604
0002a0 7e 6c 39 3d 34 97 a9 be ef 9d ac bc 0c 1a e6 bd
       0.04526948 -0.3312317 -0.021071402 -0.11235437
0002b0 58 a0 bc 3d 1a 03 45 3f 51 16 1a 3d 5a 42 58 be
       0.09210271 0.7695786 0.03761894 -0.21119061
0002c0 51 33 99 3e d4 31 7f be 4b 96 8a bd fd 9c b4 be
       0.29921964 -0.24921352 -0.06766947 -0.35276023
0002d0 39 dd 39 3e 33 69 f6 3c 24 3d 75 3b 19 d0 d3 be
       0.18150796 0.03007946 0.0037420476 -0.41369703
0002e0 2d 63 b3 3c 5b 30 ad be f5 65 97 3d e1 1a c9 bd
       0.021897877 -0.33825955 0.07392494 -0.0981958
0002f0 b3 78 8c 3f 8f 45 b0 be f8 04 0d bd 65 e6 82 bd
       1.0974334 -0.3442807 -0.034428567 -0.063916005
000300 dd bb fe 3e 79 98 ef bd b1 5f 2d 3d 79 21 ed bd
       0.49752703 -0.11699004 0.042327587 -0.1157865
000310 d5 b6 29 3f f6 29 50 bf 77 ee 02 bc 10 57 71 be
       0.66294605 -0.8131403 -0.007991425 -0.23568368
000320 f8 7d 18 3e f5 3c 3e bf 52 08 9d 3d 3c 93 cc bd
       0.14891803 -0.74311763 0.076676026 -0.0998902
000330 b2 82 1f 3c de f4 b6 bd 76 83 53 3d f0 75 e7 bd
       0.00973575 -0.089334235 0.051639043 -0.11301792
000340 41 c9 28 3d 32 3f 69 bf 82 9a 13 be b5 26 c5 be
       0.041207556 -0.91112053 -0.14414409 -0.38506094
000350 c2 0d 36 bf 79 03 ca 3e 1a 09 18 be 19 3d a3 be
       -0.7111474 0.39455774 -0.14847222 -0.3188255
000360 e9 85 77 3e 8c 2e 8e bd a7 0e 0b 3d 0d f7 de bc
       0.24172176 -0.06942472 0.03394952 -0.027217412
000370 e5 08 7b 3e b4 e4 9e 3e 4b b1 47 3b f1 05 a4 bd
       0.24515112 0.31033862 0.0030470665 -0.08008946
000380 b4 72 b2 3e a0 d8 85 3e b0 a3 3d bd c2 01 95 bd
       0.34853137 0.26141834 -0.046298683 -0.07275726
000390 ca 0a fd 3e a7 4e 73 be d3 e4 a3 bd 8e 87 37 be
       0.49422294 -0.23760472 -0.08002629 -0.17922804
0003a0 2f 15 d9 3e 9c 6c 27 3e 75 9f 39 be 13 ce 3c be
       0.42398974 0.16350025 -0.18127234 -0.18437986
0003b0 72 62 8b 3f 6d 28 5e bf 73 42 19 bd dd 45 e8 bd
       1.0889418 -0.86780435 -0.037416887 -0.1134145
0003c0 b7 f4 a6 3e c6 87 39 be aa 29 6b 3d 48 37 e8 3c
       0.32608578 -0.181182 0.05741278 0.028346673
0003d0 24 14 08 3f c6 da ce 3e fb 13 d9 3d 35 ab 68 bd
       0.5315573 0.40401286 0.10599514 -0.0568039
0003e0 b3 c6 ff 3e 6f 35 a1 3c 15 d6 93 ba ee bf bf 3d
       0.49956283 0.0196788 -0.0011279011 0.093627796
0003f0 ad c0 f5 3e 17 1c d1 be 9b 75 b8 3c 30 b1 c8 3d
       0.47998562 -0.40841743 0.022517016 0.09799421

fc1.bias f4 [128]
000000 f2 4a a6 3e 0e 1b d9 be ea a9 8d 3e 4b 80 f5 be
       0.32479054 -0.42403454 0.27668697 -0.47949442
000010 d3 3f b3 3d 22 52 46 bd 34 4d cd 3e 3d be 05 be
       0.08752408 -0.04841817 0.40097964 -0.13060851
000020 93 05 86 be ff 89 70 be 61 b9 33 bf 14 b8 3c be
       -0.26176128 -0.23490141 -0.7020474 -0.18429595
000030 b2 ef 7a 3e 16 65 a1 be 79 12 ad be eb 13 db be
       0.24505499 -0.31522435 -0.33803156 -0.42788634
000040 ee 3d 8c 3e f2 e2 d5 be 0e 45 01 bf 2b 35 90 3e
       0.27391 -0.41774708 -0.50495994 0.28165564
000050 bc 7c 92 be ff c7 d0 bd a2 a5 ed bd 6f a5 9c bc
       -0.2861079 -0.10194396 -0.116038576 -0.019121854
000060 02 46 26 3d 4f d1 45 bf 52 7a 40 3e 25 6c 83 be
       0.04059411 -0.77272505 0.18796661 -0.25668445
000070 fd a5 df be e3 a2 cc be 67 d4 d2 be b0 f4 c6 be
       -0.43681327 -0.39968023 -0.41177675 -0.38858557
000080 db ae 02 bf fd c0 e2 bc 80 66 0d 3f f9 45 79 be
       -0.5104806 -0.027679915 0.5523453 -0.24343099
000090 cb 2a 9f be 8f c1 07 be ef 93 50 bf 8c 08 c2 be
       -0.31087336 -0.1325743 -0.8147573 -0.37897146
0000a0 30 49 99 be 1f fc 90 3e 59 82 a9 be 94 ff 74 bd
       -0.2993865 0.28317353 -0.3310726 -0.05981405
0000b0 f4 94 9c be 43 3a ff be cd 75 4e be c9 f0 92 be
       -0.30582392 -0.49849138 -0.20162125 -0.2869933
0000c0 78 ae db be 7b cc ef be 1e 78 64 3c 0c c4 6e be
       -0.42906547 -0.46835694 0.013944654 -0.23316973
0000d0 ef d1 d4 be 57 af f0 be 39 e8 fa bd 2a a0 91 be
       -0.41566417 -0.47008774 -0.12251324 -0.28442508
0000e0 d2 57 9b be cc 9f 6c 3e f7 76 67 be 17 3f 1c bd
       -0.3034044 0.23107833 -0.22603975 -0.038146105
0000f0 f2 86 cc be 90 2b 68 bc 79 5d 20 be 55 c3 af be
       -0.39946705 -0.014170542 -0.15660657 -0.34328714
000100 e2 1a 67 be 7b ff e7 be fd 50 68 be 00 63 bc be
       -0.22568849 -0.45312104 -0.22687145 -0.3679428
000110 49 24 9b bc 55 b3 d2 be 25 2c 71 be d2 f3 0e be
       -0.0189382 -0.41152444 -0.23551996 -0.13960198
000120 bb e3 dd be 4e 3d dd be ae 53 43 be 7d a3 61 be
       -0.43337807 -0.43210834 -0.1907489 -0.22035022
000130 2e ab 8f 3e 3e a2 b1 be 20 a0 24 be 40 25 0c 3e
       0.28060287 -0.34694093 -0.16076708 0.13686085
000140 8f e8 00 bf 55 b3 e6 3e b5 da 89 be f8 2d 95 be
       -0.50354856 0.45058694 -0.26924673 -0.29136634
000150 cb 1c 9e be 74 14 b4 be 50 66 9c be 8d ed 49 3e
       -0.30881342 -0.35171854 -0.30546808 0.19719525
000160 67 c9 1e bf 69 b2 54 3e 16 1d 98 be c0 ff 0b be
       -0.62026066 0.20771183 -0.2970969 -0.1367178
000170 c9 31 12 bf a8 5b ea bd 66 93 56 be df 38 8b be
       -0.57107216 -0.11443263 -0.20954666 -0.27191827
000180 c3 ee 2a 3d 07 80 e4 3e 0b 4a a3 be 78 84 6e be
       0.041731607 0.44628927 -0.31892428 -0.2329272
000190 70 7c 81 be ef 76 63 be 25 a6 5c be 3a b0 bf be
       -0.2529025 -0.22213338 -0.21547754 -0.37439138
0001a0 23 93 20 bf e2 2c 43 be b7 06 f7 be f0 2c d2 bd
       -0.6272451 -0.1906009 -0.4824731 -0.102624774
0001b0 4e 9e c0 be 70 15 d5 be c4 be 13 be 64 cf eb be
       -0.37620777 -0.41617918 -0.1442824 -0.46056664
0001c0 41 38 5d be 96 33 c9 be a3 08 ce bd 15 a4 11 bf
       -0.2160349 -0.3929717 -0.10060241 -0.56890994
0001d0 61 11 46 bd 36 db 5f be 95 78 5f be c7 96 1e be
       -0.048356418 -0.21860966 -0.21823342 -0.15487204
0001e0 27 20 c8 3d 8f 0d 7d be 4f d5 be 3e 2b 10 b3 be
       0.097717576 -0.24712203 0.37272117 -0.34973273
0001f0 77 70 fa be 2f 7a 3a bc ed 86 01 be 53 2a 23 3e
       -0.4891393 -0.01138167 -0.12649126 0.15934114

fc2.weight f4 [128, 128]
000000 a5 cc 32 3d d3 0e ac 3e 0a 4e 1e bd 72 18 47 be
       0.043652195 0.3360506 -0.038648643 -0.19442919
000010 8c 4d 8f 3e 16 ac 69 bf 73 e9 74 bf 86 76 2d 3e
       0.2798885 -0.9127821 -0.95668715 0.16939744
000020 b4 6b 56 be dc 18 16 3e 8f c9 5b be 86 d2 12 3d
       -0.20939523 0.1465792 -0.21463607 0.035845302
000030 0b fd 99 bf 60 fc 98 3c f5 fb 39 be 0c f1 9c 3e
       -1.2030348 0.01867503 -0.1816252 0.30652654
000040 ac 30 8a 3e c8 b3 aa bd 73 67 db bd 99 f0 af 3e
       0.2699026 -0.08335072 -0.10713091 0.3436325
000050 87 ef 43 be 2a 26 88 3e a8 56 41 3d 46 4b b3 be
       -0.19134341 0.26591617 0.047201782 -0.35018367
000060 a7 95 44 3e 0e a7 4a be 6a 88 c1 3e fc 3e 05 bf
       0.19197713 -0.19790289 0.37799388 -0.5204923
000070 13 eb 1d bd ab 2a 94 be ef 66 3f 3e 27 3d 16 bf
       -0.038554262 -0.28938803 0.1869161 -0.5868706
000080 01 14 e1 bd 15 7d 40 bf 58 16 e0 3d 9a e9 e9 bd
       -0.109901436 -0.7519086 0.10941762 -0.11421509
000090 a4 ff 9e be fc 55 47 be f3 07 88 bc 8b 97 1d 3d
       -0.31054413 -0.19466394 -0.016605353 0.0384746
0000a0 66 3d 58 3e 8d 1c 8a 3e ae 51 a8 be 1e 5a 95 3e
       0.21117172 0.26974908 -0.32874817 0.29170316
0000b0 cb fc 12 bb 65 96 57 bd fc af d8 be 99 e9 4e be
       -0.0022428508 -0.05263366 -0.42321765 -0.20206298
0000c0 61 1d 7f be cb 55 83 be 39 20 e9 3d b6 e3 c0 be
       -0.24913551 -0.25651392 0.11383099 -0.3767373
0000d0 41 fd 00 bf d3 ab f3 bd c2 7d c8 3e 11 fa 1d 3e
       -0.50386435 -0.11898007 0.39158446 0.15427424
0000e0 5e e6 14 3e 78 77 9f 3e 5d ef 4c be c8 81 22 bf
       0.14541003 0.31145835 -0.20013185 -0.6347928
0000f0 b6 d9 c0 3d 0b 62 a0 bd 67 a2 74 3e 7f 8a e8 bc
       0.09416525 -0.078312 0.23890077 -0.028386353
000100 51 0a c8 bd 98 90 a6 3e bb 74 c6 3e 81 23 56 be
       -0.09767593 0.3253219 0.38760933 -0.20911981
000110 59 0c f1 3e bb 92 c2 3d 9e 87 23 3e 69 0b 85 3d
       0.47079733 0.09500643 0.15969703 0.06496317
000120 b9 83 18 be af 7b 8a 3d 48 67 85 be 2e eb 84 3e
       -0.14893998 0.06761872 -0.2605536 0.25960678
000130 d2 2b 44 be 38 93 01 bf ca 9e 38 be a4 d5 26 3f
       -0.19157341 -0.50615263 -0.18029323 0.6516974
000140 b5 9d f8 be 63 e3 b0 3e 56 9f 9b bd 32 54 19 bf
       -0.4855782 0.34548482 -0.0759875 -0.59894097
000150 0a 52 10 bf f1 10 2a bd 86 62 52 bd 1d a4 c9 3e
       -0.5637518 -0.041520063 -0.05136349 0.3938302
000160 fb 71 ff 3e 7a 6f 20 3f ab 49 e1 bd 75 74 a5 3c
       0.49891648 0.626701 -0.11000379 0.020197133
000170 47 85 8f bd e7 23 ae be 57 be 33 bd 70 a4 ce 3d
       -0.070078425 -0.34011766 -0.043882694 0.10089958
000180 3d 31 6f 3e 2d 09 23 3e a7 87 64 3e 9b 6a c6 bd
       0.23358627 0.15921469 0.22317372 -0.09688302
000190 a9 f0 b5 be 7d bf 02 bf 4b 33 34 bf 88 1e 81 3d
       -0.35535172 -0.5107344 -0.70390767 0.063046515
0001a0 6b 6b 3e be 5c e9 0c bf 3f 83 2d 3e d9 74 48 be
       -0.18595664 -0.5504358 0.16944598 -0.19575824
0001b0 dd 55 f9 3d ca e4 9a bc 0a 9d 4b be ac 5b 0b be
       0.1217458 -0.018907923 -0.19884124 -0.13609189
0001c0 07 22 85 be b4 5d 20 3e e8 f6 1c 3e d6 99 37 3d
       -0.26002523 0.15660745 0.15328562 0.044824444
0001d0 d7 4b 79 bd c5 07 2b bf 35 9a d7 be f8 a4 84 bd
       -0.060863342 -0.6680873 -0.42109838 -0.06476778
0001e0 3d 8c b8 be 37 58 0c 3e f2 c6 ff bb 96 5c f3 3d
       -0.36044493 0.13705526 -0.0078056986 0.11882894
0001f0 5f a8 22 3e 0f 08 2f 3e 9e 1b 42 be 6b 89 0c 3e
       0.15884541 0.17092918 -0.18955848 0.13724296
000200 38 e7 64 3d 2f 12 6b be 51 1d 83 bd 99 75 13 be
       0.05588457 -0.22956155 -0.06402076 -0.14400329
000210 e7 bc 0e 3c 6a 76 9a bc ac 11 b6 bd cb 30 86 bd
       0.00871203 -0.018855292 -0.088900894 -0.06552275
000220 4e 3c f4 bd b8 04 85 bd ba 07 a1 bd 74 29 cb bd
       -0.11925565 -0.06495041 -0.07862802 -0.09920016
000230 32 e1 30 bd e3 da cf bd 79 1f f3 3c 48 f3 91 3c
       -0.043183513 -0.10149171 0.029678093 0.0178162
000240 ac bb 70 bd ac a2 87 3a b1 a9 f1 bc f4 fc 8f bd
       -0.058772728 0.0010348163 -0.02949986 -0.07030669
000250 f5 fc be bc fa 30 02 3d 1c ae 86 3d 12 d3 6c bd
       -0.023313979 0.03178499 0.065761775 -0.05781848
000260 89 ba 85 bd 58 a1 40 bd e8 19 ab 3d 72 e7 ae bd
       -0.065297194 -0.04702887 0.083545506 -0.085402384
000270 ca 4a 53 3d bc 99 41 bd 1d 16 b6 bd 34 9f a0 bd
       0.051584996 -0.047265753 -0.088909365 -0.078428656
000280 1c 40 04 3c 97 35 3d 3d 7c 8d ae bc 30 6d 49 3d
       0.0080719255 0.046193685 -0.0213077 0.049176395
000290 d3 dc b7 bd cb 6c b4 3c de 63 9c bc 90 d4 e8 3c
       -0.08977666 0.022024533 -0.01909059 0.02842167
0002a0 08 c8 47 bd 3e 49 78 3c 1c 1f 18 bd 93 1e 9a bc
       -0.04877475 0.015154181 -0.037139043 -0.018813407
0002b0 d7 6d d3 bc 7f f0 b7 bd 3e bc a6 bd 5e 5a de 3c
       -0.025809212 -0.08981418 -0.08141373 0.0271427
0002c0 23 cd d5 bd c4 d2 e6 bc 65 e2 f1 bc 65 72 38 bc
       -0.10439517 -0.028176673 -0.029526899 -0.0112577425
0002d0 39 82 8e ba 76 16 9d 3c 21 e6 1e bd 1c b8 90 3c
       -0.001087255 0.01917575 -0.038793687 0.017665915
0002e0 b8 e7 9d 3d 5e 58 b6 bd 2e 19 15 3d ed c5 b0 3d
       0.077102125 -0.089035735 0.036400966 0.08631501
0002f0 71 4f ee bd 94 10 22 bd b4 4e 58 3d a8 c1 8c bd
       -0.11636246 -0.03956659 0.052809432 -0.068728745
000300 5f 91 c6 bd 9f e1 aa 3c dc e3 c4 3c 0d 4c a9 bc
       -0.09695696 0.020859538 0.024034433 -0.020666147
000310 b7 99 66 bd a4 5a c4 bd 1b 60 64 bd 82 69 14 bd
       -0.056298938 -0.09587601 -0.055755716 -0.036233433
000320 fc 38 65 bc 59 37 91 bc 46 89 d5 bc 35 fb f9 bd
       -0.013990637 -0.017726587 -0.026066434 -0.12206117
000330 55 fa ed 3c fa 09 ab bd 4b 85 c9 bc 65 41 56 bd
       0.029050032 -0.08351512 -0.024599692 -0.05230846
000340 31 e6 bf 3c 89 d4 70 bd 2e 63 78 bb a3 f1 3a bd
       0.023425194 -0.05879644 -0.0037900913 -0.0456406
000350 78 17 a1 bd cf d8 4e bc f7 6b 1a 3d 23 dd 6d bd
       -0.078658044 -0.012624933 0.03770062 -0.05807222
000360 ba 94 11 3d 16 6c 8a 3c c6 33 96 3d ea a4 88 3c
       0.035542227 0.016897243 0.07334094 0.0166802
000370 16 ea a6 bd bc e5 9c bd 68 8c 5b bd d3 41 64 bd
       -0.08150117 -0.07661006 -0.0536007 -0.055726837
000380 e0 95 0e 3c 24 c6 0c 3d be 96 ab bd 92 12 f2 bc
       0.008702725 0.03436865 -0.08378361 -0.02954987
000390 43 56 2f be b8 02 a9 3d e5 29 6d 3d db 31 c5 bd
       -0.1712275 0.08252472 0.057901282 -0.0962865
0003a0 a7 f3 4f 3d 46 46 b9 3c 61 6c e3 3c f8 bd 3a bd
       0.050769474 0.022616517 0.02776164 -0.045591325
0003b0 a6 17 51 bd b2 08 7d bd bb 01 b1 bb 3e e9 a7 bb
       -0.051047944 -0.06177587 -0.0054018176 -0.00512424
0003c0 5a 0d d9 3c 6a 9e ab bc 9a c2 cb bd 1b 79 f3 bd
       0.026495624 -0.020949561 -0.09949227 -0.118883334
0003d0 73 f7 33 be 03 66 d3 bd 3a 2c 28 bd da 17 8d bd
       -0.17574863 -0.103221916 -0.041057803 -0.06889315
0003e0 3e a2 aa bd 18 80 4d 3d f7 a5 28 3a 96 fb 44 bc
       -0.083317265 0.050170988 0.0006433422 -0.012022873
0003f0 e8 a7 81 bd 97 59 b0 3d b2 ad 81 3d 0f e4 db bd
       -0.06330854 0.08610838 0.06331958 -0.10736858

fc2.bias f4 [128]
000000 20 db 21 3f c4 44 1c be 6e 73 d4 be 0c a0 fd be
       0.63224983 -0.15260607 -0.41494316 -0.4953617
000010 0e 49 bc be 7d 83 c0 be 03 77 45 3d 87 04 73 be
       -0.36774486 -0.37600318 0.0482092 -0.23732196
000020 07 4b c0 3c 57 cb ea bd b8 6b a0 be 65 96 ad bc
       0.023473276 -0.11464565 -0.31332183 -0.021189878
000030 a2 9a ae bd 4b d6 19 be 9e 90 b7 bd ed 0e db bd
       -0.085255876 -0.15023153 -0.089631304 -0.10696206
000040 5b 38 00 be 58 bb 5e bd 17 10 e1 be bb 64 94 3c
       -0.12521498 -0.054377884 -0.43957588 0.018114438
000050 ce 30 02 bf fc bf 1f 3e a1 99 1d bd 43 cc 2b 3e
       -0.5085572 0.1560058 -0.03847659 0.16777138
000060 94 00 60 be c1 2a 24 bf 79 72 65 bd 0f 0f 4e bf
       -0.2187522 -0.6412774 -0.056017373 -0.8049173
000070 f2 0f 23 bf 91 14 ec bd a7 4d 3e bd 62 67 9c be
       -0.63696206 -0.1152736 -0.046460774 -0.30547625
000080 9a ea f6 bd ba f0 13 3d 23 77 a1 bd 84 ee 12 be
       -0.120564654 0.036118247 -0.07884052 -0.14348799
000090 a8 b1 99 3d 30 47 02 be 4b fc dc bd 0f af 93 be
       0.07504588 -0.12722468 -0.107903086 -0.28844497
0000a0 0c f6 1c bf e3 c5 79 bd 88 23 fd bd d2 22 d1 bd
       -0.6131294 -0.060979735 -0.12360293 -0.102117196
0000b0 94 25 11 be 23 54 ca bd ba ee a2 be cf b5 d4 3d
       -0.14174491 -0.09879329 -0.3182276 0.1038624
0000c0 1e 5b 4b bf 05 19 e7 3c 28 74 19 3c 71 4d 96 3e
       -0.7943591 0.028210172 0.009366073 0.29355958
0000d0 5d 7b 6d be 2d 18 ce be 2e 10 54 bd 52 1a 65 3e
       -0.2319159 -0.4025282 -0.051773243 0.22373322
0000e0 6d 7d 84 bd ba 3a a0 3b a9 99 12 bf 77 5e 3d be
       -0.064692356 0.0048898133 -0.57265717 -0.18493067
0000f0 84 ee 05 be 78 e5 a4 bd f9 a5 98 3e 9c 9d b3 bd
       -0.13079268 -0.0805158 0.29814127 -0.08770296
000100 8d b1 1c bd b2 28 b3 bd a6 c1 c0 bd 68 18 f9 bd
       -0.038255263 -0.087479964 -0.094119355 -0.12162858
000110 0f c9 c1 3e 76 22 e1 bd f8 b5 cd be 7c 03 68 be
       0.37848708 -0.10992901 -0.40177894 -0.22657579
000120 da 41 2a bd 3b 4b 14 bf b4 8c 12 bd d5 bb 31 be
       -0.041566707 -0.5792729 -0.035778716 -0.17356808
000130 af 76 94 be c8 d2 0b be 7e 25 0a be 41 5d 57 be
       -0.28996798 -0.13654625 -0.13490865 -0.21031667
000140 0f 06 72 be f6 9a f7 bd 91 9c 43 bf b1 06 c7 be
       -0.23635124 -0.12090103 -0.76410776 -0.38872293
000150 80 05 10 bf 0c a2 08 bf 4a d7 1b be eb e3 b8 be
       -0.5625839 -0.53372264 -0.15218845 -0.36111388
000160 bc f2 39 bd 70 be 8a be dd d7 3b be e5 6b d1 b9
       -0.045397505 -0.27098417 -0.18344064 -0.00039943974
000170 cf 86 ad be 35 84 41 3d ec ff 0a be fb de 82 bc
       -0.33891913 0.047245223 -0.13574189 -0.015975466
000180 c3 33 2f be 38 7f 71 bf 28 a4 3a be 25 ac 1b be
       -0.1710959 -0.94334745 -0.18226683 -0.15202387
000190 8c cc 10 be 4e 68 4e be 47 63 8d 3e 24 37 22 bd
       -0.14140528 -0.20156977 0.27614805 -0.039603367
0001a0 fa 6d 21 3e 3a fa a1 be 17 d0 20 bf 14 77 2b be
       0.15764609 -0.3163622 -0.6281752 -0.16744643
0001b0 89 28 ff bc b1 83 f1 be 82 4a 8c be 7f e6 11 be
       -0.031147258 -0.47170785 -0.27400595 -0.14248084
0001c0 8e 71 4e bf c7 b4 5f be ec 1f 96 3e 7c be b3 bd
       -0.8064202 -0.21846305 0.2932123 -0.087765664
0001d0 5c 2e 87 be c2 42 b9 bd a3 35 8b be 70 58 be be
       -0.26402557 -0.09045936 -0.2718936 -0.37176847
0001e0 d0 54 8f be be fb 32 3e 8e 15 c6 be c7 61 24 bd
       -0.27994394 0.17478845 -0.3868832 -0.04013231
0001f0 20 b1 18 bb 3f 67 ba bd 2f e1 8b 3c d8 2e 89 be
       -0.0023298934 -0.09101724 0.01707515 -0.2679355

fc3.weight f4 [2, 128]
000000 7e f5 48 3d d7 83 96 3c b8 3a cb 3e 62 60 bb bd
       0.049062245 0.018373413 0.39693236 -0.09149243
000010 e5 a2 b7 3e 24 9e a7 3c e1 8e 07 3d 09 01 4f be
       0.35866466 0.02046115 0.033095244 -0.20215239
000020 63 58 a3 3e 55 26 d2 3c 5a 02 2f bf 65 e5 9c bb
       0.3190337 0.025653044 -0.68362963 -0.004788088
000030 48 88 ac 3a 5a c1 5c bc 2d b9 d8 bc a8 17 b8 3e
       0.0013163174 -0.013473833 -0.026455486 0.35955548
000040 9b 38 36 bf 55 91 bf bc 02 e9 d0 bd ac 50 e7 bd
       -0.71180123 -0.02338473 -0.10200693 -0.11294684
000050 eb cc c0 bd 4b b9 98 3b 77 a7 c0 3c 1f f0 19 3f
       -0.09414085 0.0046607605 0.023517353 0.6013202
000060 d1 8c fc b7 94 12 8e be 42 fd 93 bc 92 22 cb bd
       -3.0106314e-05 -0.2774855 -0.018065099 -0.09918703
000070 9f 7d 3f be 8d 43 17 3c 95 d5 1d 3b 35 1e b1 3d
       -0.18700264 0.009232414 0.0024083604 0.0864834
000080 48 fe 21 3d 1c f8 c0 3a 11 01 32 3f d3 90 cd 3d
       0.039549142 0.001472238 0.6953288 0.10037389
000090 ed 62 c7 3f 95 1a d8 3b d9 91 39 3d 52 11 f6 bd
       1.5577065 0.0065949657 0.045305107 -0.12015022
0000a0 94 4c 27 be 81 1d 67 bb 9e 40 a5 3c a5 3e 8f 3c
       -0.16337806 -0.0035265388 0.020172413 0.017485926
0000b0 23 89 87 3d 7b 1a 08 3b 51 c3 fe 3c 5b 64 56 3d
       0.06617954 0.0020767737 0.031098993 0.0523418
0000c0 3d cd 2a be 00 9c 0b be 15 0d 29 3f f7 4b 01 3e
       -0.16679855 -0.13633728 0.66035587 0.12626635
0000d0 f0 81 04 3c 66 cb 9d 3e 71 3d ce bc 10 8a c4 3c
       0.00808762 0.30819243 -0.025175782 0.023991615
0000e0 30 e7 3e bb a1 c5 8c 3d 77 a9 d5 bd d2 98 6e bc
       -0.0029129498 0.06873632 -0.104327135 -0.014562802
0000f0 95 cf e2 bc 87 dd d6 bb 8c 57 18 3d 8c b0 46 bd
       -0.027686873 -0.00655717 0.037192866 -0.048508212
000100 63 f0 4d bd 14 83 e9 bd 9c 98 c1 3e c7 2f 89 3c
       -0.05027808 -0.11401954 0.37811744 0.016746415
000110 1c 94 ca 3e 97 4d 40 3c 4f c5 31 3c f9 08 c2 bc
       0.39566123 0.011737249 0.010850265 -0.02368592
000120 6e 4c 87 be f3 b6 fd bd 22 01 c4 bd 0d 76 91 3d
       -0.264255 -0.123884104 -0.095705286 0.071025945
000130 1b 15 b6 be 92 3f 9d 3c 97 f6 86 3c ff 83 19 bb
       -0.35562977 0.019195352 0.016475005 -0.0023424623
000140 c5 1c 0f bf 4f 21 d2 bc 36 44 ba bc cb b1 df 3e
       -0.55903274 -0.025650648 -0.022737604 0.43690333
000150 7f d9 c0 be ce 30 9e be be c5 35 3e f4 fc ee bd
       -0.37665936 -0.3089661 0.17751214 -0.11669341
000160 ff 2d 00 bd b9 d0 a3 3e 8e 59 52 3d 03 d4 5e bc
       -0.031293865 0.3199518 0.051354937 -0.013600352
000170 0c de 98 bc 5e c9 47 be 0e 4d 2d bd ac e2 dc 3c
       -0.018660568 -0.19510409 -0.042309813 0.026963554
000180 cd 05 01 be 77 e3 9b be ed 86 79 3d 73 0c d0 bd
       -0.12599869 -0.3044698 0.06091969 -0.101586245
000190 3e 3a 8c 3e 9a 73 d3 3c 66 be e0 3e c2 ae 83 bb
       0.27388185 0.025811959 0.43895262 -0.0040186355
0001a0 56 6a ea be 15 12 88 bc 86 af 2d bd e8 d1 45 bf
       -0.45784253 -0.016610185 -0.04240372 -0.77273417
0001b0 1b 4b cd 3b 8a 6c d0 be bf 00 a3 3e 41 e1 23 bd
       0.006265057 -0.4070781 0.31836507 -0.04000974
0001c0 46 af ad be 3c e7 a1 bd f1 eb 2b 3d ae ef 5b 3d
       -0.33922786 -0.079054326 0.041973058 0.053695373
0001d0 93 a2 dc bd dd 66 2b 3f e5 a3 00 bf 28 a3 40 3d
       -0.10773196 0.6695383 -0.50250083 0.047030598
0001e0 a0 0d 25 be 1a af 33 3d e0 b0 f9 3c ad e5 a4 bd
       -0.16118479 0.04386816 0.030479848 -0.0805162
0001f0 4f 01 a4 3d 0f 8b 99 bc 83 c3 b7 bd e5 65 8e bc
       0.08008062 -0.018743066 -0.08972838 -0.017382571
000200 b0 31 c6 3f 3c 4d 83 bd 93 ff 8a bf 2a 50 e0 3e
       1.5483913 -0.06411216 -1.0859245 0.4381116
000210 06 84 f0 be bc 8c 48 3f 5b 06 cd 3d 21 05 06 3f
       -0.46975726 0.78339744 0.10010978 0.52351576
000220 db 03 68 bf fd 01 86 3d 10 3c 85 3e 20 be 10 3d
       -0.9063088 0.06543348 0.26022387 0.035337567
000230 e4 51 01 bf 43 d5 23 bd 1f e9 61 bd 2c 5b 27 bf
       -0.5051558 -0.039998304 -0.055153962 -0.6537349
000240 5f bd a4 3e ff 24 18 be ad 67 e4 3e af 98 64 bd
       0.3217573 -0.14857863 0.44610348 -0.055809673
000250 42 73 5a 3e b3 29 b9 bf fe af 80 bc 73 97 c9 3c
       0.2133303 -1.446585 -0.01570892 0.02460835
000260 c6 3c 04 3e 39 2b 00 3f f4 79 10 bf 17 2b 55 bf
       0.12913808 0.5006595 -0.56436086 -0.83268875
000270 d1 27 8f 3e 1d b5 83 3d 4d e3 08 bd e6 ff 02 3e
       0.27960065 0.06431029 -0.033419896 0.1279293
000280 1e bc f7 3c 7b dc 14 bd 54 09 1c bf d7 89 bd 3c
       0.030241068 -0.03634308 -0.60951734 0.023137016
000290 cc 55 6c be a9 90 aa bb 10 08 f5 3a 16 f1 02 3f
       -0.23079604 -0.005205233 0.0018694419 0.5114912
0002a0 39 cb 88 3e 35 fd f7 bc 80 d6 bf bc 91 18 01 3d
       0.26717547 -0.030272106 -0.023417711 0.03151757
0002b0 4b f6 04 3c b0 17 ca 3d 64 41 71 3d 5e e1 2d be
       0.008115361 0.09867799 0.058900252 -0.16980502
0002c0 3f d0 e8 be ca 6c 85 3e e9 09 78 3f 4d e2 6f 3d
       -0.4547138 0.26059562 0.9689012 0.058565427
0002d0 27 1f ff 3e 26 ef 95 3e 4c 7a e4 3e c7 0b 93 3f
       0.49828455 0.29284018 0.44624555 1.1487969
0002e0 28 c5 98 bf 84 b4 2d be 26 d9 36 3f a3 a7 9f 3c
       -1.1935167 -0.16963392 0.7142509 0.019489115
0002f0 8f 43 97 bc ab 5a de bf 08 63 b2 3e f8 1d 12 3c
       -0.018464832 -1.737142 0.3484118 0.008918278
000300 b5 f1 2c bf 33 17 31 bf 41 51 86 3c 34 b3 70 bf
       -0.67556316 -0.69176024 0.016396167 -0.9402344
000310 34 81 7d 3e 23 27 e4 3c 9b 14 64 3e 54 fe bb bc
       0.24756318 0.027850693 0.22273485 -0.022948422
000320 9e 77 f4 3e 94 d3 d3 3d a8 a6 38 bc f5 9f 90 bd
       0.4774751 0.1034309 -0.011270203 -0.070617594
000330 ee a9 b2 be 52 a0 92 bc ee c6 83 bd 00 29 80 3e
       -0.3489527 -0.017898712 -0.06434427 0.2503128
000340 5f 71 f3 be 72 73 57 3f 01 12 cd be 46 5f 81 bf
       -0.47547433 0.8416053 -0.40052798 -1.01072
000350 d9 a4 97 be 71 b3 b8 3e 82 23 d1 3e 90 41 0b 3f
       -0.29617956 0.36074403 0.40847403 0.54396915
000360 15 74 2b 3c 30 d2 14 be 77 5f af bc e9 2b 54 bd
       0.010464688 -0.14533305 -0.021407826 -0.05179969
000370 1f aa df bb b3 2d a9 bd 0f 41 10 bd f4 ac 9c 3c
       -0.0068257 -0.082606696 -0.035218295 0.01912544
000380 71 1b b6 3e 91 e2 0e 3f f3 71 21 bf 18 b7 f4 bc
       0.3556781 0.5581446 -0.630645 -0.029872462
000390 eb dd 73 3e 27 ae c4 3c f1 d6 4e 3e 11 ce 8a bc
       0.23815124 0.024008824 0.20199181 -0.016943963
0003a0 87 cb 09 3e 0b 99 97 3f 51 54 de 3e 5c 1d 30 be
       0.13456546 1.184358 0.43423703 -0.171987
0003b0 b9 3f 0c bd 41 ad b7 3e dc 84 e2 3d 16 e1 9d be
       -0.03424046 0.3587437 0.11060497 -0.3083579
0003c0 1b 20 0f 3f 94 a3 14 3c 17 79 11 c0 56 cd 03 3e
       0.55908364 0.009072203 -2.2730157 0.12871298
0003d0 09 3f 86 3e 11 f9 0c 3e 53 17 b7 bb 41 c9 6b 3e
       0.26219967 0.13766886 -0.0055874973 0.23025991
0003e0 52 33 c4 3d e2 9b 05 bf 15 f5 27 3f 58 31 73 3f
       0.09580101 -0.52190983 0.6560834 0.9499717
0003f0 ba 39 b5 bf d4 15 91 3c 13 9d 84 3f 65 a4 bc bd
       -1.4158242 0.017710604 1.0360435 -0.09211043

fc3.bias f4 [2]
000000 b8 d1 ae be 57 2c 40 3f
       -0.34144378 0.7506766
