checkpoint_critic.pth (torch, 83844 bytes, 9 tensors)

bn1.weight f4 [24]
000000 00 00 80 3f 00 00 80 3f 00 00 80 3f 00 00 80 3f
       1.0 1.0 1.0 1.0
000010 00 00 80 3f 00 00 80 3f 00 00 80 3f 00 00 80 3f
       1.0 1.0 1.0 1.0
000020 00 00 80 3f 00 00 80 3f 00 00 80 3f 00 00 80 3f
       1.0 1.0 1.0 1.0
000030 00 00 80 3f 00 00 80 3f 00 00 80 3f 00 00 80 3f
       1.0 1.0 1.0 1.0
000040 00 00 80 3f 00 00 80 3f 00 00 80 3f 00 00 80 3f
       1.0 1.0 1.0 1.0
000050 00 00 80 3f 00 00 80 3f 00 00 80 3f 00 00 80 3f
       1.0 1.0 1.0 1.0

bn1.bias f4 [24]
000000 00 00 00 00 00 00 00 00 00 00 00 00 00 00 00 00
       0.0 0.0 0.0 0.0
000010 00 00 00 00 00 00 00 00 00 00 00 00 00 00 00 00
       0.0 0.0 0.0 0.0
000020 00 00 00 00 00 00 00 00 00 00 00 00 00 00 00 00
       0.0 0.0 0.0 0.0
000030 00 00 00 00 00 00 00 00 00 00 00 00 00 00 00 00
       0.0 0.0 0.0 0.0
000040 00 00 00 00 00 00 00 00 00 00 00 00 00 00 00 00
       0.0 0.0 0.0 0.0
000050 00 00 00 00 00 00 00 00 00 00 00 00 00 00 00 00
       0.0 0.0 0.0 0.0

bn1.running_mean f4 [24]
000000 34 e0 19 c1 85 7a 0a be 16 30 39 3f 23 b0 d8 3c
       -9.617237 -0.135233 0.72339 0.026451176
000010 bd 0a 2b bd 8c 44 79 40 16 30 39 3f 23 b0 d8 3c
       -0.041758288 3.8948088 0.72339 0.026451176
000020 a9 73 1a c1 8e a5 06 be 55 9f 5c 3f 81 2d 4d bc
       -9.653237 -0.13149092 0.8618062 -0.012523056
000030 3d 4b 00 bd 44 9d 78 40 55 9f 5c 3f 81 2d 4d bc
       -0.031321753 3.8845987 0.8618062 -0.012523056
000040 df e4 1a c1 c1 b0 0d be 31 ce 8b 3f cd 36 ba bc
       -9.680877 -0.13836958 1.09223 -0.02273121
000050 6f e7 87 bc 9e 1f 79 40 31 ce 8b 3f cd 36 ba bc
       -0.016589848 3.8925548 1.09223 -0.02273121

bn1.running_var f4 [24]
000000 b0 69 cd 40 90 e8 2f 3f bc 69 1c 43 a3 4d 91 41
       6.4191513 0.6871424 156.41302 18.162909
000010 a5 79 f3 41 4b f1 15 40 bc 69 1c 43 a3 4d 91 41
       30.434397 2.3428524 156.41302 18.162909
000020 ea 72 c5 40 1b fa 2d 3f b5 97 1f 43 a4 9a 96 41
       6.1702776 0.67959756 159.5926 18.825508
000030 9e 9c f8 41 9c 8c 12 40 b5 97 1f 43 a4 9a 96 41
       31.076473 2.289832 159.5926 18.825508
000040 2c d5 bc 40 c1 18 35 3f 0a 4f 1e 43 86 55 95 41
       5.901022 0.70740896 158.30875 18.66676
000050 98 bb fe 41 c6 a5 0f 40 0a 4f 1e 43 86 55 95 41
       31.841599 2.244493 158.30875 18.66676

fcs1.weight f4 [128, 24]
000000 17 36 8b 3d a5 80 a8 3f 77 04 06 3d 41 c5 0d 3e
       0.06797426 1.3164259 0.0327191 0.13844778
000010 83 ba 7b bd 3f d1 73 3f 90 3f 45 bd 05 2e d3 3d
       -0.06145717 0.9524116 -0.04815632 0.10311512
000020 6c db 93 3e 39 7a c9 3f 00 f5 32 bc 07 29 3f bc
       0.28878343 1.5740424 -0.01092267 -0.0116674965
000030 35 4e 3b 3d 38 45 b3 3e 13 16 90 3c d7 5f 3d bd
       0.04572888 0.35013747 0.01758865 -0.046233978
000040 41 fb 5f 3e cf 90 c5 3f 00 a4 0d 3d c2 4a f0 be
       0.2187319 1.5434817 0.03458023 -0.46932036
000050 86 b8 22 3e 6a 27 a3 bf f8 af ea bc c8 fd d9 be
       0.15890703 -1.2746403 -0.028648362 -0.42576432
000060 e7 75 15 3e ed 0d 0d bd 48 8a 84 bd ce ac 74 3d
       0.14595757 -0.03443711 -0.064716876 0.059735112
000070 61 1b 24 bd f7 48 d5 be 44 b8 74 3d 62 85 9c 3d
       -0.040065173 -0.4165723 0.059746042 0.07642628
000080 73 b9 0f 3e 96 06 45 bd 8f 8a 66 3c 1b 69 88 3d
       0.14035587 -0.048101984 0.014071121 0.06660672
000090 cc f3 c0 3e b8 87 c0 bd d9 c0 a1 bc 02 e6 c6 3d
       0.37686002 -0.09400886 -0.019745277 0.09711839
0000a0 72 1a 44 3e e3 77 bd 3e 1d 43 87 3c 5b 99 91 3e
       0.19150713 0.3700553 0.016511494 0.28437313
0000b0 96 be cf 3f 0f 0a ea 3e 45 ed 90 bc 3d a6 af 3e
       1.6230037 0.457108 -0.017691264 0.34306517
0000c0 85 60 44 3e 99 2b d7 3e b7 32 8c bd 95 29 ff bc
       0.19177444 0.4202545 -0.068456106 -0.031147758
0000d0 13 b6 ef 3e d8 ce fd 3e c2 f6 31 3d 11 ec 24 3d
       0.468186 0.49571872 0.043448217 0.040264193
0000e0 fd d1 aa 3d 9e 35 c3 3e b4 76 48 3d 85 88 3a 3c
       0.08340833 0.38126844 0.04894133 0.011385088
0000f0 11 83 21 3f 40 d2 8e be 7b 56 a5 bd 33 97 c6 bd
       0.63090616 -0.27894783 -0.080731355 -0.09696808
000100 cf 65 32 3e ea 38 83 3e f0 c9 77 3d 9e 41 01 3f
       0.1742165 0.2562936 0.060495317 0.5049075
000110 bb 11 85 3e 6a 90 cc bf 89 fa c4 bc 7e bf e8 3e
       0.2599009 -1.5981572 -0.024045246 0.45458597
000120 d5 7e 13 be 01 f1 ed bc 30 19 b8 3c 33 72 11 3d
       -0.14403851 -0.029045584 0.022472948 0.0355093
000130 1f 30 94 3e 22 80 90 3e 48 c5 14 3c 41 94 2b 3c
       0.28942963 0.28222758 0.009080239 0.010472358
000140 42 42 0a 3e c3 53 89 3d 28 20 5f 3e 0d ce ca ba
       0.13501838 0.067054294 0.2178961 -0.0015472785
000150 39 f5 8b 3d 64 d4 99 be 04 77 1b 3e 45 81 c0 bb
       0.06833882 -0.30044854 0.1518212 -0.005874785
000160 ed 5f 36 3e 68 1c f1 3d f3 23 9d bd a4 95 9a 3d
       0.1781003 0.11772996 -0.076728724 0.07548073
000170 b3 9f 06 3e 2f ac 44 c0 95 ff 82 3d 8d 97 36 3d
       0.13146858 -3.0730093 0.06396405 0.044578124
000180 9e 3f bb be 67 89 57 3e b6 35 ae bc 2f b9 96 3c
       -0.36571974 0.21048509 -0.021265846 0.01839885
000190 07 7c 5a be 6c 5a 88 3e 8b 86 44 3c 88 22 7b bc
       -0.21336375 0.26631486 0.011994968 -0.015328057
0001a0 b9 0c 9f be 01 c3 07 3f 07 0a f2 bc 81 92 fb bd
       -0.31064394 0.5303193 -0.029545797 -0.12283803
0001b0 48 c0 6b 3d b0 59 25 bf c1 c9 81 bc a4 2c ac 3c
       0.05755642 -0.6458998 -0.015843274 0.02101738
0001c0 62 62 90 be 80 43 2d 3f d1 e2 9a bd 34 c4 97 3e
       -0.2820006 0.6768112 -0.07562793 0.2964188
0001d0 5d 1f 2f 3f cf eb a9 bf 01 b4 3e 3d f8 a3 b0 3e
       0.6840723 -1.3275088 0.046558384 0.34500098
0001e0 f7 38 d6 bc 92 3c e5 3c 54 33 b6 bb c3 9c 82 bd
       -0.02615021 0.027982984 -0.005560318 -0.06377556
0001f0 a3 39 a2 3e 91 9f 5f 3e 61 19 cc bc 8c 60 24 bd
       0.31684598 0.21838214 -0.024914445 -0.040131137
000200 0b 8b 64 bd 08 b4 e5 3d 37 39 25 3d 0c fa 94 3c
       -0.055796664 0.11215979 0.040337767 0.018185638
000210 ae f9 12 3f de d7 3c bf 55 94 9e bd ed c3 8a bd
       0.5741223 -0.7376689 -0.07743136 -0.06775651
000220 dd fa 3c bc 56 1f cb bb 12 35 97 be 27 9d 6e bd
       -0.01153442 -0.006198804 -0.29532677 -0.05825534
000230 e2 44 ed 3e ab e9 d1 bf 7a 11 85 be ec 3f 1f be
       0.46341616 -1.6399435 -0.25989896 -0.15551728
000240 77 a4 be 3d 08 58 3d 3e b7 cd 84 3d 17 04 f6 bc
       0.09308713 0.18490613 0.064845495 -0.030031247
000250 0b 26 b8 be 36 21 97 3f 86 c9 82 bd c3 e1 5c 3d
       -0.35966524 1.180701 -0.06386094 0.05392624
000260 e4 9d 46 b9 2f 6d 8c 3e b8 dd 6e bc 21 46 9a bb
       -0.0001894157 0.2742705 -0.014579229 -0.004708067
000270 b8 5a 09 be 37 91 fa bd d0 38 b3 3c 19 2e 1d 3d
       -0.13413513 -0.12234729 0.021877676 0.03837404
000280 8e 2d 00 be 4e d5 33 3f ee d3 91 3d 01 ab 02 3f
       -0.12517378 0.7024735 0.071205005 0.5104218
000290 65 25 07 3e 16 66 06 c0 86 4f 69 bd f5 7e 08 3f
       0.13197859 -2.0999808 -0.056960605 0.5331872
0002a0 ac f4 97 3e 61 af 2b 3e 78 ce 61 bb a0 f1 5d bd
       0.29678857 0.1676612 -0.003445534 -0.05418551
0002b0 1b 69 38 bf 3a 21 22 3f 81 e2 34 3b be fc 38 3d
       -0.7203538 0.6333195 0.0027600827 0.04516291
0002c0 5b f7 04 3f 69 49 15 3e cd 8f 97 bc 0e ed 8f 3d
       0.51939934 0.14578785 -0.018501187 0.070276365
0002d0 5c 95 89 be e7 46 bd 3e 84 eb 8d bd 58 26 70 3d
       -0.26871765 0.36968157 -0.06929687 0.058630317
0002e0 30 fd d2 3e 24 d0 13 3e 8e c6 0d bd 52 ed 17 3f
       0.41208792 0.14434868 -0.034613185 0.593465
0002f0 ed 3a 1f 3f 26 b6 65 bd f0 0e 73 bc 3c bf 05 3f
       0.6219929 -0.056081913 -0.014835104 0.52244925
000300 cc 4d 76 3e b0 f8 62 3e cc 82 92 bb 3e c6 f5 3e
       0.24053115 0.22165179 -0.0044711586 0.4800281
000310 9c df d4 3d 4d 9f e3 be 16 8d a0 bc ce 9b d6 3e
       0.103942126 -0.44457474 -0.019598525 0.41915745
000320 45 7a bd 3e 6b a2 b6 3e 14 c6 d7 3c ba 30 15 3f
       0.37007347 0.3567079 0.026339568 0.58277476
000330 dd ed a5 bd 78 bf 55 bf 01 a1 6e 3c 70 35 01 3f
       -0.081020094 -0.83495283 0.0145647535 0.50472164
000340 7e 33 c0 3e 3e b0 33 3f 02 f6 28 bd 5d ca 97 3e
       0.37539285 0.701908 -0.041250236 0.29646578
000350 f4 a8 a0 be f7 cf 92 bf bb 42 ea bd b9 25 9f 3e
       -0.313789 -1.1469716 -0.11438509 0.31083468
000360 9a 0c 92 3d 47 21 05 bf c1 ba f7 bc 60 af b6 3d
       0.0713131 -0.520039 -0.030240418 0.08920169
000370 87 40 15 be b1 6e ae be b7 7b 45 3c 92 df 33 3e
       -0.14575396 -0.34068826 0.012053422 0.17565754
000380 72 15 8d 3e 14 69 d1 be 2f a3 a6 bc 0d 10 d0 3e
       0.27555424 -0.4090048 -0.020341484 0.40637246
000390 35 a3 e3 be 24 77 0f bf a9 7c ad 3c 3d bf 9c 3e
       -0.44460455 -0.5604117 0.021177607 0.30614653
0003a0 cd 79 04 3f 7f 2d 04 be 8c 73 8c 3d 18 6f c7 3e
       0.51748353 -0.1290798 0.06857976 0.38951945
0003b0 0b 41 44 bf 15 0d 70 bf ad ab 56 3d 7a b3 6f 3e
       -0.7666175 -0.9376996 0.052409817 0.23408309
0003c0 e9 4b 9a 3c 1e 8e 33 bf a4 77 98 bd 86 44 ec bd
       0.018835025 -0.7013873 -0.07444695 -0.11536507
0003d0 75 11 1c 3d 0a 44 b5 3e c8 66 9f 3d 3e a1 a9 bd
       0.038102586 0.35403472 0.07783276 -0.08282708
0003e0 a4 0a 7f 3e 59 2b 45 bf a2 ed ea 3c 8c c9 73 be
       0.24906403 -0.7701927 0.028677765 -0.23807353
0003f0 e8 ce a9 bd eb 1c 32 bf ac bb 88 3d 30 54 3e be
       -0.08291417 -0.69575375 0.066764206 -0.18586802

fcs1.bias f4 [128]
000000 87 39 16 3f f9 44 81 bf e9 dc 12 be df 90 4b 3e
       0.5868153 -1.0099174 -0.14342083 0.19879483
000010 82 23 86 be a1 35 0f 3f 19 90 e4 3e 3b da ac 3d
       -0.26198965 0.55941206 0.44641188 0.08440062
000020 eb 93 ae be 0b 71 07 bf f8 f7 6c be 92 98 43 bf
       -0.34097227 -0.52906865 -0.23141468 -0.7640468
000030 a6 82 38 3d bb d2 cb be 05 cf 8f be 80 1d 97 3f
       0.04504647 -0.39809212 -0.2808763 1.1805878
000040 fc f5 ac 3e 2f 08 23 be d5 0e e0 3c 0b a7 8b be
       0.3378142 -0.1592109 0.027350822 -0.2727588
000050 e3 52 19 bf 0c 28 aa be cb 75 f8 be 18 73 13 bf
       -0.598921 -0.33233678 -0.4852737 -0.57597494
000060 e0 fe 27 be da 92 69 be 6d 97 bd 3d ca 5c 8a 3d
       -0.16405821 -0.22809926 0.09257398 0.06755979
000070 71 07 b6 3d 48 e0 7f bf b7 0d 8c be 70 c7 d9 bf
       0.08888138 -0.999516 -0.27354214 -1.7013988
000080 7f 41 d3 be dc 64 66 3e 6e 13 28 3d b1 1f ad be
       -0.41260907 0.22499412 0.041034155 -0.3381324
000090 d5 82 2c 3f c5 7d 91 be fa 07 ed be fd 11 b9 be
       0.67387134 -0.28416267 -0.46295148 -0.36146536
0000a0 5d e6 60 bf 00 dc 20 3f 06 c2 8f be 26 95 e5 be
       -0.87851506 0.62835693 -0.28077716 -0.44840354
0000b0 2c b3 b1 bc d7 2a 45 be 23 65 f2 3d 4b 2d 43 3f
       -0.021691881 -0.19254623 0.118356965 0.76240987
0000c0 aa 3f 92 bf 3e 5a 87 be 38 b8 70 bf 7a 22 5d 3b
       -1.1425679 -0.26436037 -0.94031096 0.0033742473
0000d0 94 ec 16 3e 4c d2 c0 be 8b 82 6d bc 92 81 f2 3e
       0.14738685 -0.37660444 -0.014496456 0.4736448
0000e0 28 5e 90 be 71 b7 09 be df a0 98 bf ea e0 8e bf
       -0.28196836 -0.13448884 -1.1924094 -1.1162388
0000f0 82 2b bd be 98 44 28 be 2e 4b 55 3e 55 7e 79 bf
       -0.36947256 -0.16432416 0.2082946 -0.9745839
000100 35 5d 29 3e 65 8e c7 bf da ad 52 be 76 05 5b be
       0.16539462 -1.559033 -0.20574132 -0.21388802
000110 78 ef 17 bd ca 6a 82 3d a5 44 e3 be 07 40 4b bd
       -0.03709361 0.06368025 -0.4438831 -0.049621608
000120 40 d2 b5 3e 58 96 1f 3e da 24 29 3f f7 cd b6 3f
       0.3551197 0.15584695 0.66071856 1.4281605
000130 8f da 37 3d b6 11 d6 be 8b 9b 52 3c 49 36 d8 3e
       0.044886168 -0.41810387 0.012854467 0.42228916
000140 54 3f fe bd 56 e0 0c 3d 09 9f e5 be e7 23 93 3e
       -0.12414423 0.03439363 -0.44847897 0.2873833
000150 08 42 b5 3e 4c 39 d8 3f 56 a7 14 bf 0f 46 3a bf
       0.3540194 1.6892486 -0.58067834 -0.7276315
000160 3e de 42 bf b3 04 3c bd ad 11 72 3e ce 56 99 bf
       -0.76120365 -0.04590292 0.23639555 -1.1979616
000170 2c 56 94 be b0 3b 6f 3f 00 8f e2 bd 55 dc c0 bf
       -0.28971994 0.9345045 -0.11062431 -1.506724
000180 7e 2b aa 3f 01 f0 cf be ac e5 c9 3c d7 40 e8 3d
       1.3294523 -0.40612796 0.024645649 0.11340492
000190 3d ff 1b be 7c 4e 98 be d6 a5 2b be dc af 27 3f
       -0.15234084 -0.2974738 -0.1676248 0.65502715
0001a0 c3 77 3f be 56 f4 05 3e f9 87 14 bf d7 47 74 bf
       -0.18698029 0.13081488 -0.5801998 -0.9542212
0001b0 58 77 23 c0 2d 62 11 3f a2 62 92 be a3 21 0b 3f
       -2.5541592 0.5679043 -0.28590876 0.543482
0001c0 ff 38 62 be ba c3 d3 bf c2 9d 50 be f9 15 7c be
       -0.22092055 -1.6544106 -0.2037268 -0.24617757
0001d0 3d ed 25 bf 34 57 f2 be 7b 3e 10 be 50 6a 5f be
       -0.6481512 -0.47332156 -0.14086334 -0.21817899
0001e0 e3 47 03 3c 74 28 40 bd e2 9a d8 be 8a 02 13 3f
       0.008012745 -0.04691358 -0.42305666 0.5742575
0001f0 63 2f c6 bf 34 81 2c 3e c1 04 d5 bf ea ae 58 3f
       -1.5483211 0.16846162 -1.6642076 0.846419

fc2.weight f4 [128, 130]
000000 51 ec 40 bd fe 77 ed 3c 48 63 da bd e3 75 0d be
       -0.04710037 0.02898788 -0.10663468 -0.13814501
000010 ba f0 07 be 4f c9 1e bd d6 11 8a bd 90 66 94 bd
       -0.13275424 -0.0387662 -0.06741683 -0.07246125
000020 22 ce b7 bd 77 99 8d bd 8d 30 d6 bd 74 cb 18 bd
       -0.089748636 -0.06914037 -0.10458479 -0.037303403
000030 a0 65 e2 bc f4 c5 ef bc a0 70 c9 bd 3b 3e 70 3c
       -0.02763635 -0.029269196 -0.09835935 0.014663274
000040 e3 9e 4b bd cf 51 9a bd cb 0b e0 3b d4 b7 c0 bd
       -0.049712073 -0.07535135 0.0068373433 -0.094100624
000050 e5 ac 95 bc 66 7b 0f bd 07 13 44 bd b6 a2 52 bc
       -0.01827092 -0.03502979 -0.04786971 -0.012856176
000060 2c 17 a4 bd 0a 98 87 3d f7 f8 59 3d a6 51 78 3d
       -0.08012232 0.06620796 0.053215947 0.06062474
000070 ec 0b f7 bd 87 9c 23 3d 72 5f 0e 3c c4 85 f0 bd
       -0.12062821 0.039944198 0.008689748 -0.11744264
000080 aa 05 8a bd 16 52 67 bc c6 87 90 3d 94 b7 a2 bb
       -0.067393616 -0.014118692 0.07057147 -0.004965732
000090 10 30 7f 3d c2 b9 ea bd b1 07 5a bb 3e cd dd 3b
       0.062301695 -0.11461212 -0.0033268745 0.0067688515
0000a0 c5 06 9b 3c cc f4 7e bd 2d 82 04 bd 52 fd 76 bd
       0.018924126 -0.062245175 -0.032350708 -0.06030018
0000b0 a5 ba c4 bc af a8 63 bd 09 73 8d bd d6 3a c5 bd
       -0.02401478 -0.05558079 -0.06906707 -0.09630363
0000c0 4b ad 8b bc 78 83 d3 bd 5a b6 c3 bc 61 5c 9a bc
       -0.017050406 -0.1032781 -0.023890663 -0.018842878
0000d0 38 47 d7 3c 49 7c 67 3c 8d 8b 77 39 89 be a3 bd
       0.026279077 0.014128753 0.00023607742 -0.07995326
0000e0 47 5f 89 bd 5d 40 e0 3c e2 c4 99 bd 84 60 ab ba
       -0.06707626 0.02737444 -0.075082555 -0.0013075029
0000f0 45 82 3b 3d 90 3a 96 bc 73 ca 64 bd 95 5e 3d bd
       0.04577853 -0.018338472 -0.055857133 -0.04623278
000100 b6 0f 84 bd 27 9b c9 bd 91 76 87 3b e1 d6 b7 bc
       -0.06448309 -0.09844046 0.0041340073 -0.02244133
000110 11 50 20 bd 91 cf bf bd 8a be 07 be 7c eb 32 bd
       -0.039138857 -0.09365762 -0.13256279 -0.043681607
000120 7a b2 da bd 3a c4 f5 bc 11 dd 94 bd d1 65 56 bd
       -0.10678573 -0.030000795 -0.072687276 -0.052343193
000130 03 b2 7b bd c5 69 22 3d 5c 07 fc bc b6 f9 08 bd
       -0.061449062 0.03965165 -0.030765228 -0.033441268
000140 fd 77 9f 3c 04 45 bc 3b 74 bb 31 bd ee c1 11 bc
       0.019466395 0.005745532 -0.04339166 -0.008896334
000150 1b af 2a 3d 15 07 0b bd da c6 32 3d 36 5c 07 3d
       0.0416709 -0.0339423 0.04364667 0.033046924
000160 f5 61 24 bd d9 69 50 3d f3 39 0a 3d 9b 47 c2 3c
       -0.04013248 0.050882194 0.03374667 0.023715785
000170 57 27 80 3d 3a ad e4 bd 53 1a 37 bd e7 d2 4c bc
       0.062575035 -0.11165853 -0.04470284 -0.012501455
000180 20 ee 00 bb 33 90 32 bc 60 2d 1c bc ee 9b 65 bd
       -0.0019673184 -0.010898638 -0.009532303 -0.05605691
000190 78 8f 3d 3d 01 1f 47 bd f2 ed 8b 3d b1 f2 47 3c
       0.0462794 -0.048613552 0.06832494 0.012203858
0001a0 2f 67 cf bd c6 13 00 3d b1 8f 85 3c 86 bd 8c 3d
       -0.101271026 0.031268857 0.016303869 0.06872086
0001b0 16 0d 4d bd 18 b1 35 bd 44 9a da bd 0a bf 34 bc
       -0.050061308 -0.044358343 -0.10673955 -0.011031875
0001c0 c1 ed 64 bd 61 9c 7e 3b 1e b2 71 3c 17 51 c0 bd
       -0.055890802 0.0038850533 0.014751939 -0.09390467
0001d0 f1 a7 10 be 28 21 00 bd 36 5c fd bd 0e f3 95 bd
       -0.14126565 -0.03128162 -0.123711035 -0.0732175
0001e0 8f 07 9c bd 3f f7 1b 3d a8 b7 6f bc d9 e0 8f 3c
       -0.07618629 0.03807759 -0.014631189 0.01756327
0001f0 4d bf 44 bd 02 61 2e 3c 73 27 f6 3c dc e7 82 3d
       -0.048034 0.010643246 0.030048108 0.0639188
000200 b3 1d 87 be 68 4c 66 3c 01 4f 02 be 24 ed 69 bd
       -0.26389846 0.014056303 -0.1272545 -0.05711092
000210 4a e0 33 bd d7 41 32 be 86 29 5e bd a5 c1 5d 3c
       -0.04391507 -0.17407928 -0.05423882 0.013534938
000220 51 f2 60 3d 8a c8 86 be 24 ad 9e bd 75 46 28 be
       0.05491859 -0.26324874 -0.07747868 -0.16433127
000230 cc 43 51 be 6b 67 a6 bd c5 2c 7e bd b0 82 25 bd
       -0.20436019 -0.08125194 -0.062054414 -0.040407836
000240 25 f0 c3 bc bc c3 42 be e5 a9 e1 be b9 ca 0b 3d
       -0.02391822 -0.19019979 -0.44074932 0.03412888
000250 0c a8 1e 3d b9 5a 40 bd 0e 21 d6 bd 29 ba b9 be
       0.03873448 -0.04696152 -0.104555234 -0.3627484
000260 c0 89 c4 3c ff 81 f7 bc b7 e7 6f 3d 0b e9 8e 3c
       0.023991466 -0.030213354 0.05857059 0.017445108
000270 d3 fc a4 be 02 5d 5c 3d 5e d0 31 3c 2a e8 95 bc
       -0.3222414 0.053799637 0.010852901 -0.018299181
000280 98 cd f5 bc ee be fb bd f5 0b ba 3c f0 8a 9a bd
       -0.030005261 -0.12292276 0.02271078 -0.075460315
000290 a5 7c 4b bd c1 6a 73 3c 4e 15 e2 ba de 77 d2 3b
       -0.049679417 0.014856995 -0.0017248781 0.0064229807
0002a0 d6 6f 91 3c b4 ca 61 3d 92 ba 34 be 65 88 86 bd
       0.017753523 0.055124953 -0.17649296 -0.06568984
0002b0 03 27 56 bd 16 29 a7 bd 9f b1 8c 3c f6 09 b2 bd
       -0.0522833 -0.081621334 0.01717454 -0.08693306
0002c0 53 f9 7d bd 98 3d 58 bc 47 ff ee bd bc fc ea bd
       -0.062005352 -0.013198279 -0.11669784 -0.114739865
0002d0 bc 99 e5 bd dc 0f 0e bb aa a7 51 bd 32 ac 45 be
       -0.11210963 -0.0021676933 -0.051185288 -0.19303969
0002e0 ee 7b 2c be 3f 66 d1 bc 64 55 dc be ae b0 5b bd
       -0.1684415 -0.02556145 -0.43033898 -0.05363529
0002f0 73 3e 08 be b8 16 14 be 2a c3 a5 bd 30 cc d6 bd
       -0.13305072 -0.14461792 -0.08093865 -0.104881644
000300 8e 3c 2c be 03 65 6d 3d 65 72 bd bd e2 2e 3b 3c
       -0.16819975 0.05795766 -0.09250335 0.011424752
000310 79 cb 90 3d a3 e2 f9 bd 84 ff 43 be 0e 58 27 be
       0.07070059 -0.12201431 -0.1914044 -0.16342184
000320 2a 50 75 3b 34 27 73 bd 82 f9 b1 bd b2 a9 80 3c
       0.0037431815 -0.05936356 -0.08690168 0.015705917
000330 58 22 00 bf 6f ec 09 be 1b f1 9b bc f7 f5 2c 3e
       -0.50052404 -0.13469099 -0.019035866 0.16890703
000340 de e4 4b be 2c 4f 22 be df df 77 bd 10 55 97 39
       -0.19911525 -0.15850514 -0.060516234 0.0002886434
000350 44 f8 6f bd f2 14 41 be 01 0e 3b be c9 ef 1f 3d
       -0.058586374 -0.18855646 -0.18267061 0.039047036
000360 e3 75 ae be 8d 6c e9 bc 66 6b c1 bd ca a5 17 bd
       -0.34074315 -0.028494144 -0.09444313 -0.037023343
000370 47 62 30 3d 06 96 c9 bd d1 66 0b be 0b 83 66 3c
       0.043062475 -0.09843068 -0.1361344 0.014069329
000380 1f 71 bd be ca 8c 46 bd 51 2f 18 be ad b2 e6 bc
       -0.37000367 -0.04847411 -0.148618 -0.028161371
000390 9d 94 09 bd c2 25 7e be 53 66 13 be a4 06 3b be
       -0.033588994 -0.24819091 -0.14394502 -0.18264252
0003a0 86 7a 08 bc 20 8c ea 3d d0 3e 1e bc 6f 67 f6 3b
       -0.008329993 0.11452508 -0.00965853 0.0075196545
0003b0 2c 68 eb bd 79 d5 53 be a7 45 86 bd 18 82 c4 bd
       -0.114944786 -0.20686902 -0.06556254 -0.09595126
0003c0 d3 df 7f 3d 88 e3 82 bd 8e c2 27 3d 90 2a 53 bd
       0.062469315 -0.063910544 0.040957026 -0.051554263
0003d0 3b 64 1f 3d 53 45 24 bd 8f a4 4c be ef 82 53 bd
       0.038913947 -0.040105175 -0.19984649 -0.05163854
0003e0 13 e1 44 3d 83 8d 0b be 37 da 72 3c 9c 0f a9 be
       0.04806621 -0.13628201 0.014822534 -0.33019722
0003f0 04 d3 71 bc 11 33 85 3d d9 e9 bc bd 90 0d cd bd
       -0.014759783 0.06503881 -0.092242904 -0.100123525

fc2.bias f4 [128]
000000 73 f3 bd bd 00 bc 9a bd 12 6d bf bc 8d ff eb bd
       -0.0927495 -0.075553894 -0.023367438 -0.11523352
000010 f1 20 cd bd 00 c6 39 40 5d 1c 12 bc e9 50 d9 bd
       -0.10016049 2.90271 -0.008917895 -0.106111355
000020 0f 2c 16 be 8b 00 f1 bd 47 55 4d ba 8b f3 e4 bc
       -0.14665245 -0.11767682 -0.0007832837 -0.027948162
000030 d5 2b 29 3d 23 43 ce bd 97 ed e0 bc 50 11 85 be
       0.041301567 -0.10071399 -0.027457042 -0.2598977
000040 ba 25 89 bd ee 99 bb 3a 4a 9f a3 bd 2e 29 0f bd
       -0.06696649 0.0014312842 -0.07989366 -0.03495138
000050 f2 d6 18 bd a1 2f 5f 3f c7 07 ee bb 46 7f b0 bc
       -0.037314363 0.8718205 -0.0072641107 -0.021545064
000060 8d f0 8b bd 16 8a d8 bd 5d 84 ce bd 27 31 50 bd
       -0.06832991 -0.10573213 -0.1008384 -0.050828125
000070 7f 82 a6 bd 58 a2 bf 3f d5 33 b4 bd c4 04 9f bc
       -0.08130359 1.4971418 -0.08798949 -0.019411452
000080 91 f9 34 ba 3d d2 66 3e d1 1e 0f be d8 26 4e bd
       -0.00069036434 0.22541137 -0.139766 -0.050330013
000090 bb dd f4 bc 8f ae 9b bd 89 61 00 be a5 05 ba 3d
       -0.029890886 -0.07601654 -0.12537207 0.09083108
0000a0 ff 4e 87 bd 07 d0 cb 3c 0b 9f eb 3b b6 d3 e1 bd
       -0.06606864 0.024879469 0.0071905903 -0.11026709
0000b0 fd a3 da 3c 6b f5 9c bd f0 cd e9 bd 7a d2 35 3e
       0.026689524 -0.07663997 -0.114162326 0.17756072
0000c0 73 2c 10 be f1 05 23 be 5b 7d eb 3f bb 23 75 bc
       -0.14079456 -0.15920235 1.839763 -0.014962132
0000d0 2e 07 79 bf 48 81 0c bd cb a0 71 bd 6e b4 db bb
       -0.9727658 -0.03430298 -0.058991235 -0.0067048585
0000e0 34 11 8e bf fb 65 09 bf 21 e6 81 bd 85 d3 10 be
       -1.1099 -0.53671235 -0.06342722 -0.14143188
0000f0 94 28 b1 bd 03 60 05 be dc 17 df 3f 76 c0 02 bd
       -0.08650318 -0.13024907 1.7429156 -0.031921826
000100 20 26 78 3f 11 4b a9 bd b3 74 0c be 4c e5 26 40
       0.96933174 -0.08266271 -0.13716392 2.6077452
000110 75 e1 f6 3f 90 be 96 bc a4 19 c4 bd fd c5 81 bf
       1.9287554 -0.018401414 -0.09575203 -1.0138546
000120 23 d3 16 be 58 77 0c be dc e7 c1 bd 1a e7 0f be
       -0.1472898 -0.13717401 -0.09468052 -0.14053002
000130 5a a8 1a be 94 9b d4 bb cf d0 ac bd d3 ab 99 bd
       -0.15103284 -0.006488273 -0.084382646 -0.07503476
000140 15 4a f2 bd 84 46 3d 3d 2c 6d 2f be d6 e0 4c 3f
       -0.11830536 0.046209827 -0.1713149 0.8003057
000150 a2 a6 f6 bc 33 6e 24 be c8 17 e9 bd 2e 3c 32 be
       -0.030108754 -0.16057663 -0.11381489 -0.17405769
000160 28 2b 18 be 86 d7 d2 bf c5 0b fa 3b f7 56 52 3f
       -0.14860213 -1.6472023 0.0076307976 0.8216395
000170 15 9d af 3f 59 1f 40 3f a2 e7 07 be c7 7d a8 bf
       1.3719813 0.7504783 -0.13271955 -1.3163384
000180 71 fc 88 bc 97 8f 17 be 15 ea 92 bd 27 d2 ca bd
       -0.016721936 -0.14800869 -0.07173554 -0.09903365
000190 1d b7 e2 bd 94 a6 ea bd d8 5b 9c bd bd 02 15 be
       -0.11070082 -0.114575535 -0.07634705 -0.14551826
0001a0 64 55 d7 bc bd a1 19 3d 30 f8 53 bf bb bd 31 3c
       -0.026285835 0.03750776 -0.8280058 0.010848458
0001b0 c6 18 a2 bd 9b f9 0d be ce b3 b1 bd 47 64 90 bd
       -0.079148814 -0.13864748 -0.08676873 -0.070503764
0001c0 0f 26 07 be 73 c9 1a 3e 4d ab 59 bd a0 87 6e bd
       -0.13198112 0.1511591 -0.05314188 -0.05823481
0001d0 44 3e a5 bd 19 8d c1 3b 10 a6 38 3d 85 27 8b 3f
       -0.08068517 0.0059067127 0.045080245 1.0871435
0001e0 ca 44 d2 bd f8 42 ad bd 61 09 8c bd 60 0a 42 bd
       -0.10267027 -0.08460039 -0.068377264 -0.047373176
0001f0 44 16 5b bc 50 8b 83 3d 74 94 d9 bd b7 60 57 bd
       -0.013372008 0.06423056 -0.10624018 -0.05258247

fc3.weight f4 [1, 128]
000000 d3 73 f4 bc 1c ed fb bc 52 ff e5 bc 0e 55 05 3c
       -0.029840386 -0.030752711 -0.028075848 0.008137954
000010 97 fa 58 3a ba 5e b2 3f 9c 25 d5 bc f2 ce 16 bc
       0.0008277087 1.3935158 -0.02601891 -0.009204613
000020 32 05 8f 3c c4 7d 4f 3a b1 eb 12 3c bd 48 d4 3b
       0.017458532 0.0007915164 0.008967326 0.0064783976
000030 dd 3c 99 ba 3c ac be bb 3d b9 b2 bc 7a 07 03 bf
       -0.0011691112 -0.005818872 -0.021816844 -0.51183283
000040 ec d1 52 3c 67 c3 0a bc 18 44 0b bb e1 6a 35 3c
       0.012867432 -0.008469439 -0.0021250304 0.011072845
000050 19 20 a1 3c 91 2a c2 3f 2d e1 b6 3b be f9 a0 bc
       0.019668626 1.516924 0.0055810423 -0.019650336
000060 aa 58 c1 bc f5 fe a0 3c 93 a9 a2 bc 82 35 50 bf
       -0.023601849 0.019652823 -0.01985625 -0.81331646
000070 1a a2 9a c0 24 b2 84 3f 32 ff c5 bb e7 97 81 bc
       -4.832288 1.0366864 -0.0060423845 -0.015819503
000080 8e f4 88 bc f7 55 97 3f 07 00 aa bc 37 c3 0f 3c
       -0.016718175 1.1823109 -0.020751966 0.00877457
000090 f9 bc 86 3b f8 6e 50 3c 1a 2d 37 3c 08 c2 a3 39
       0.0041118828 0.0127217695 0.011180187 0.00031234347
0000a0 19 fc 5d bb fd 56 4e bc 7e ee d2 bb 51 e6 90 b9
       -0.0033872186 -0.012593982 -0.006437122 -0.0002763742
0000b0 b5 48 41 bb cf ad 29 ba f8 0c e6 bc 67 5d b2 3f
       -0.00294928 -0.0006472738 -0.028082356 1.3934754
0000c0 6a 62 e9 3c 32 50 cb bc e0 74 9b 3f 9f b5 a5 bb
       0.02848931 -0.024818514 1.2145042 -0.0050570513
0000d0 11 e3 6e c0 cd a2 9a bc db d2 18 bc 24 89 5a bc
       -3.732609 -0.018876458 -0.009327616 -0.013338361
0000e0 5b 58 f9 bf c1 0c 9d bf 5f 7d 93 3c 48 b2 77 3c
       -1.9480089 -1.2269517 0.018004118 0.015118189
0000f0 bc 0e 65 bc d6 5f eb 3c b1 e1 ae 3f 99 9a f4 3b
       -0.013980564 0.028732222 1.3662626 0.0074647185
000100 3e 4f 9d 3f 2d 9f a1 3c 3f 20 7c 3c 95 85 b7 3f
       1.2289808 0.019729221 0.015388547 1.4337641
000110 c4 18 c1 3f cf 12 bf 3b ac c2 94 3a aa ab 45 c0
       1.5085683 0.0058310996 0.0011349521 -3.0886025
000120 9e 7b a2 bc 23 b5 a5 3c 4b 27 9d bc 25 7c d9 3c
       -0.019834336 0.020227974 -0.019183775 0.026548455
000130 fc d3 ea 3b d4 ac 39 3b ad 91 81 3b 35 93 a7 3b
       0.007166384 0.0028331773 0.0039541335 0.005113984
000140 0c 9f 67 bc c9 da ad 3b 40 8f 93 bc bc e1 b3 3f
       -0.014137041 0.0053056222 -0.018012643 1.4053264
000150 6e bf 95 3c 18 9b a5 3c 9f f7 ff 3b b1 d8 20 bd
       0.018279757 0.020215556 0.007811501 -0.039269153
000160 ff 00 03 3c 68 0d 07 c0 e3 b1 5a 3a f7 f6 1f 3f
       0.007995843 -2.1101933 0.0008342547 0.62486213
000170 e3 72 44 3f 2d ea ad 3f be 48 1c 3b 9a 74 07 c0
       0.76737803 1.358709 0.0023847069 -2.1164918
000180 6c 73 28 bc 46 c3 e7 3c a6 f5 35 3c ca 15 02 bc
       -0.010281425 0.028291356 0.01110593 -0.007939765
000190 51 5f 1f c0 20 ed 54 bc c2 14 b4 bc 55 ce 23 bc
       -2.4901927 -0.012995988 -0.021982554 -0.009997924
0001a0 fe dd 8a 3c b6 a3 82 bf 4c fa 83 c0 08 1a 8a 3c
       0.016951557 -1.0206211 -4.124304 0.016858116
0001b0 b7 81 9e ba 7a 58 db bc 0e be 24 3b dd 08 d9 3b
       -0.0012093101 -0.026775587 0.0025137695 0.006623371
0001c0 ff d9 e8 3b 54 0c c2 3f e5 05 a0 bc 2c f6 d9 bc
       0.0071060653 1.5160012 -0.01953406 -0.026606642
0001d0 24 cc 83 3c 9e 70 76 3b a6 35 85 3f 10 6e 09 40
       0.016088553 0.0037603746 1.0406997 2.1473427
0001e0 89 5f c3 3c 21 8e 14 bd a8 68 f7 bb b0 26 18 3c
       0.023849266 -0.036268357 -0.007550318 0.009286568
0001f0 c2 80 8d 3a fe 62 3b 3c fb bf 1d c0 f4 26 52 3c
       0.0010795819 0.011437176 -2.4648426 0.01282667
