checkpoint_actor.pth (torch, 582020 bytes, 10 tensors)

bn1.weight f4 [24]
1.0 1.0 1.0 1.0 1.0 1.0 1.0 1.0
1.0 1.0 1.0 1.0 1.0 1.0 1.0 1.0
1.0 1.0 1.0 1.0 1.0 1.0 1.0 1.0
00000000: 0000 803f 0000 803f 0000 803f 0000 803f
00000010: 0000 803f 0000 803f 0000 803f 0000 803f
00000020: 0000 803f 0000 803f 0000 803f 0000 803f
00000030: 0000 803f 0000 803f 0000 803f 0000 803f
00000040: 0000 803f 0000 803f 0000 803f 0000 803f
00000050: 0000 803f 0000 803f 0000 803f 0000 803f

bn1.bias f4 [24]
0.0 0.0 0.0 0.0 0.0 0.0 0.0 0.0
0.0 0.0 0.0 0.0 0.0 0.0 0.0 0.0
0.0 0.0 0.0 0.0 0.0 0.0 0.0 0.0
00000000: 0000 0000 0000 0000 0000 0000 0000 0000
00000010: 0000 0000 0000 0000 0000 0000 0000 0000
00000020: 0000 0000 0000 0000 0000 0000 0000 0000
00000030: 0000 0000 0000 0000 0000 0000 0000 0000
00000040: 0000 0000 0000 0000 0000 0000 0000 0000
00000050: 0000 0000 0000 0000 0000 0000 0000 0000

bn1.running_mean f4 [24]
-3.6255538 -0.5795827 15.454347 0.39553437 0.06133578 2.9249291 15.454347 0.39553437
-3.878962 -0.65375024 16.943617 0.17661397 0.07338219 2.8012245 16.943617 0.17661397
-4.1336884 -0.74873525 18.316301 -0.04279078 0.055443686 2.6125898 18.316301 -0.04279078
00000000: 1309 68c0 885f 14bf 0145 7741 7b83 ca3e
00000010: 3a3b 7b3d 0a32 3b40 0145 7741 7b83 ca3e
00000020: ea40 78c0 2d5c 27bf 878c 8741 4bda 343e
00000030: 6749 963d 4347 3340 878c 8741 4bda 343e
00000040: 2d47 84c0 1dad 3fbf c987 9241 6345 2fbd
00000050: eb18 633d ac34 2740 c987 9241 6345 2fbd

bn1.running_var f4 [24]
20.573847 1.1647258 263.3253 5.2456903 42.55107 5.588948 263.3253 5.2456903
21.197874 1.1849279 253.70305 6.188854 45.872597 6.5009155 253.70305 6.188854
21.689346 1.19153 248.91768 7.7146635 49.2303 8.016548 248.91768 7.7146635
00000000: 3d97 a441 bc15 953f a3a9 8343 b2dc a740
00000010: 4c34 2a42 a9d8 b240 a3a9 8343 b2dc a740
00000020: 3f95 a941 b8ab 973f fbb3 7d43 180b c640
00000030: 8a7d 3742 8007 d040 fbb3 7d43 180b c640
00000040: c883 ad41 0e84 983f edea 7843 86de f640
00000050: d4eb 4442 c843 0041 edea 7843 86de f640

fc1.weight f4 [512, 24]
-0.05483028 0.07601998 0.033954654 -0.020200338 -0.064787835 -0.0036942612 0.032032195 0.010821868
-0.046300657 0.039818853 1.841909e-05 -0.014771754 -0.035602693 -0.03501937 0.024364216 -0.049744267
-0.032762893 0.07593729 0.0199 -0.06928531 0.05111644 -0.014063978 -0.0049561984 -0.09816831
0.031495187 -0.0027768684 -0.03632438 0.019385768 0.039563153 0.053819306 -0.0018966384 -0.04765539
-0.024200834 -0.021869896 -0.07698304 0.018907629 0.013199689 -0.018162634 -0.057364844 -0.03340783
0.030807626 -0.03847918 -0.04958835 -0.01310118 -0.011449968 -0.0070110746 0.011612422 0.04627814
0.056475367 -0.017231429 0.07758477 0.07418214 -0.01343822 0.0026877183 0.034515534 0.029706111
0.030725831 0.01617585 -0.0111900335 -0.007515812 0.0044589736 0.026304439 -0.000720266 0.00020618147
0.018955419 0.019932117 0.04508924 -0.010000896 0.02220065 -0.04238394 0.0044181715 0.029267685
0.018037148 0.006304934 0.0681882 0.0057402663 -0.00737905 0.015968949 -0.015678823 0.020288952
0.06594025 -0.032186992 0.05477979 0.01331106 0.022957295 0.011240368 -0.010932902 0.015514401
-0.00552757 0.010626753 -0.00067284185 -0.006670206 0.048483804 -0.039810456 0.029349137 0.054287735
0.016077766 0.035003323 0.008867553 0.0038314748 -0.0029518742 0.053192973 -0.030450521 0.05986853
0.029385578 -0.016534382 0.052270263 0.051770937 0.03042584 -0.012372393 0.025564669 -0.020177454
-0.013568934 0.05831612 0.013719414 -0.013459804 0.012076807 -0.022112394 -0.0020665573 -0.027637115
0.027097886 -0.04593157 0.044446226 0.017631171 -0.0049740826 0.018413475 0.009103011 -0.022055762
0.036907308 -0.023411952 0.029825106 -0.034255307 0.029936437 0.037452653 0.013717579 -0.012368856
-0.032439932 -0.015215581 0.031182893 0.0054778648 0.02225261 -0.0447015 0.039168835 0.009630701
-0.009569446 0.019081062 0.052324362 -0.033694528 0.047006376 0.030079506 0.03571329 -0.023092022
0.028202042 0.03904174 0.015270383 0.022544652 0.05443388 0.020388652 0.022175903 -0.0018113147
-0.012606198 0.04797432 0.018558305 -0.043629475 0.0025490252 -0.019286817 -0.025316525 -0.024385491
-0.019981802 0.02239815 0.008814281 -0.0018072185 -0.014798749 0.008364209 0.0019221333 0.060734976
-0.0023913775 0.0065106587 -0.0042052986 -0.01829635 0.05807057 3.7237605e-05 -0.0011810759 0.05063143
0.04127215 -0.004883517 -0.005018555 0.011384039 0.028095925 0.014014598 -0.0040385374 0.022324426
-0.0003683312 0.06458181 0.0024054644 -0.012201049 -0.048703365 0.041831307 0.019250588 0.03206295
-0.049713552 0.037363715 0.043874484 0.016444456 0.020147456 0.042397544 0.0037558808 -0.008285671
0.0027620995 0.028205587 0.038795274 -0.048828628 0.027682519 0.009651467 -0.0065118223 -0.04843246
0.027533386 -0.024096882 -0.03557894 0.0019584603 0.031719364 0.05693547 -0.033766046 -0.012299105
-0.047038376 -0.058842532 -0.011656048 -0.0045259893 0.020351548 0.04981906 -0.021481209 0.020700216
-0.011885677 0.006327634 0.022944734 0.051781543 -0.00020916115 0.04852486 -0.020544892 0.001123129
-0.07658827 0.011132253 0.04009692 -0.0017844661 -0.028922455 0.030597607 -0.020735055 -0.0025122804
-0.02847101 0.0028196583 0.04160645 0.020192731 -0.029122438 0.048418205 0.018330008 0.020790461
00000000: b795 60bd 5db0 9b3d 0914 0b3d 2e7b a5bc
00000010: 7caf 84bd 6b1b 72bb 3134 033d 344e 313c
00000020: c2a5 3dbd 1819 233d b282 9a37 3a05 72bc
00000030: 21d4 11bd 7970 0fbd 7797 c73c a5c0 4bbd
00000040: 6232 06bd 0385 9b3d 5305 a33c 75e5 8dbd
00000050: 795f 513d 996c 66bc 9b67 a2bb 780c c9bd
00000060: 1901 013d 1ffc 35bb e0c8 14bd e7ce 9e3c
00000070: f90c 223d a271 5c3d a098 f8ba 4c32 43bd
00000080: d440 c6bc 7f28 b3bc 49a9 9dbd 2ce4 9a3c
00000090: 8243 583c cec9 94bc 66f7 6abd a6d6 08bd
000000a0: 4660 fc3c 589c 1dbd 271d 4bbd 55a6 56bc
000000b0: a698 3bbc 28bd e5bb 0742 3e3c 268e 3d3d
000000c0: b752 673d ed28 8dbc c4e4 9e3d ceec 973d
000000d0: fb2b 5cbc 6e24 303b 2960 0d3d 3b5a f33c
000000e0: bdb4 fb3c 3783 843c 6756 37bc 3347 f6bb
000000f0: 951c 923b 687c d73c 3cd0 3cba 6b32 5839
00000100: 6548 9b3c ae48 a33c 7faf 383d ccda 23bc
00000110: 23de b53c c89a 2dbd 4fc6 903b c9c2 ef3c
00000120: a4c2 933c 9f99 ce3b 41a6 8b3d d818 bc3b
00000130: f5cb f1bb 50d1 823c e070 80bc 0435 a63c
00000140: af0b 873d 82d6 03bd c660 603d a216 5a3c
00000150: f010 bc3c 8529 383c ea1f 33bc 1d30 7e3c
00000160: 9e20 b5bb d51b 2e3c a761 30ba be91 dabb
00000170: f496 463d 4a10 23bd 9a6d f03c d15c 5e3d
00000180: 85b5 833c a55f 0f3d 3749 113c 7b19 7b3b
00000190: 3b74 41bb e0e0 593d 5f73 f9bc b438 753d
000001a0: 06ba f03c 1d73 87bc 5819 563d c30d 543d
000001b0: 9c3f f93c 94b5 4abc ff6c d13c 304b a5bc
000001c0: 3c50 5ebc e2dc 6e3d 65c7 603c 8286 5cbc
000001d0: cddd 453c 0d25 b5bc 146f 07bb 3b67 e2bc
000001e0: 63fc dd3c be22 3cbd 3f0d 363d 3f6f 903c
000001f0: a1fd a2bb dbd7 963c cc24 153c 49ae b4bc
00000200: 1e2c 173d 6cca bfbc c853 f43c 4b4f 0cbd
00000210: 423d f53c f467 193d b2bf 603c bea6 4abc
00000220: bcdf 04bd c64a 79bc 4473 ff3c a97f b33b
00000230: 1b4b b63c ec18 37bd 806f 203d 16ca 1d3c
00000240: 2ac9 1cbc e34f 9c3c 1252 563d 4603 0abd
00000250: c289 403d 4c69 f63c 1948 123d 7b2b bdbc
00000260: f807 e73c 3bea 1f3d a130 7a3c 90af b83c
00000270: 0ff6 5e3d 1a06 a73c 3daa b53c a369 edba
00000280: 3a8a 4ebc b880 443d 9607 983c d2b4 32bd
00000290: 8c0d 273b 63ff 9dbc 9a64 cfbc 15c4 c7bc
000002a0: e0b0 a3bc 537c b73c c669 103c 31e0 ecba
000002b0: 7476 72bc 090a 093c 17f0 fb3a 3dc5 783d
000002c0: a8b8 1cbb 5d57 d53b 9acc 89bb 3ae2 95bc
000002d0: 68db 6d3d 932f 1c38 55ce 9aba e762 4f3d
000002e0: fc0c 293d e905 a0bb b172 a4bb 1f84 3a3c
000002f0: 6d29 e63c 7c9d 653c b555 84bb b7e1 b63c
00000300: 941c c1b9 7843 843d ffa4 1d3b e9e6 47bc
00000310: 2e7d 47bd 4e57 2b3d 69b3 9d3c 7154 033d
00000320: 70a0 4bbd b20a 193d bbb5 333d 86b6 863c
00000330: 470c a53c 0ca9 2d3d 3925 763b 9fc0 07bc
00000340: 5704 353b 670f e73c cbe7 1e3d 8700 48bd
00000350: 73c6 e23c 3021 1e3c 2061 d5bb 1d61 46bd
00000360: b28d e13c d366 c5bc 39bb 11bd 8359 003b
00000370: 2aec 013d 2b35 693d 444e 0abd 2f82 49bc
00000380: 50ab 40bd de04 71bd 02f9 3ebc c04e 94bb
00000390: 4ab8 a63c 120f 4c3d 5cf9 afbc 8093 a93c
000003a0: 25bc 42bc 0b58 cf3b 98f6 bb3c e218 543d
000003b0: 4552 5bb9 01c2 463d c34d a8bc f535 933a
000003c0: 50da 9cbd 0e64 363c ab3c 243d bfe4 e9ba
000003d0: c9ee ecbc d5a7 fa3c 90dc a9bc 12a5 24bb
000003e0: 093c e9bc 04ca 383b 866b 2a3d 3a6b a53c
000003f0: 2e92 eebc 2b52 463d d028 963c c250 aa3c

fc1.bias f4 [512]
0.007532228 0.02498058 -0.02099304 -0.16025358 -0.075972095 0.036946297 -0.099739194 0.16694346
-0.037935 -0.037284818 -0.09658934 0.11767235 0.15807892 0.16992801 -0.15506063 -0.0072746594
-0.059242975 -0.044823553 -0.21410672 0.2067121 0.16305459 -0.11824528 0.120848835 -0.06457775
0.171348 0.006621689 0.0805922 -0.025913546 -0.03179815 -0.10780907 -0.14594509 0.19411308
0.17682828 0.20715556 0.1269316 -0.17659524 -0.1439598 0.024204247 -0.19067135 0.07513508
0.05025574 -0.05304131 0.029861929 0.05057938 -0.06436359 0.012762595 0.03049255 -0.1106642
0.18931244 0.19971406 -0.14304617 -0.049554627 0.014182023 -0.0073203887 -0.07582099 0.03259599
0.05302114 0.04858951 0.11831066 0.027824309 0.08461868 -0.0044552637 -0.0759116 0.07628422
0.17684661 0.0076708263 -0.16759418 0.0581252 -0.14963876 0.06907746 0.19650878 -0.15086098
-0.040999282 0.17053047 0.10600215 0.1874329 -0.101232775 0.005053404 -0.15236254 -0.089471415
0.023322903 0.14348789 0.2142409 -0.08545866 0.15633532 -0.15047225 -0.18817702 0.021786358
0.21306865 0.18492751 -0.15924865 -0.042925797 0.18730539 0.10942599 0.041984502 -0.09914143
0.1430068 0.213758 0.14726858 0.08342762 -0.077462815 -0.21009488 0.19418295 0.035056233
0.039797843 0.062167767 -0.08880715 -0.14651537 0.12513897 -0.03997008 -0.1941869 -0.04977187
-0.04086684 -0.15753752 -0.16105512 -0.052249428 -0.1423815 0.13968624 -0.20349869 -0.11397725
-0.13109025 -0.06744381 -0.1738085 -0.06424041 -0.11784613 0.1411116 -0.17576934 0.18523994
0.17267145 0.021701338 -0.030900024 -0.13935341 -0.08383612 -0.1379782 0.034818426 0.20157999
-0.08439881 -0.053577133 0.06870378 -0.19849563 -0.068060435 -0.14411664 -0.14976044 -0.06793253
0.15412934 0.07594328 0.13494669 0.19774398 0.11771888 -0.01332826 0.0828349 -0.018991224
0.07405747 0.041627627 0.0647457 -0.20004934 -0.035312906 0.091912515 0.06512595 0.018117033
-0.11257815 0.15187395 -0.023676649 -0.09249705 -0.16096844 -0.014325961 -0.19551834 0.09612491
0.03705705 -0.05748913 0.16430919 -0.022039443 0.012644256 0.14400841 0.026583873 0.01511095
0.19102222 -0.16476586 0.09191726 0.054117594 -0.009594935 0.06303346 0.06350954 -0.16448307
-0.11703847 -0.09227894 0.19162568 0.17367719 0.015248442 0.09334097 0.090245165 0.1556345
0.047821913 0.14627948 -0.045266204 0.028896175 -0.08641866 -0.17047425 -0.05395022 -0.16761364
0.07262093 0.13267608 0.068216495 -0.18376261 0.08858159 0.18500292 0.008790869 -0.17256986
-0.018074846 0.1804107 -0.11117579 -0.123234965 0.16478308 0.17716269 0.015973369 0.20497625
-0.16618605 0.11316504 -0.17875254 -0.062883675 0.15870854 -0.10182248 -0.16263261 0.020005671
0.21132104 -0.08406045 -0.17863154 0.143786 0.15374081 -0.11456505 -0.09716739 0.081355825
0.05182426 -0.10335911 -0.058998533 0.04329094 0.018981185 0.14105168 0.09004782 0.05940393
0.16456124 -0.18406071 0.06905224 -0.0020623289 -0.1483578 -0.031111253 -0.08071407 -0.19464324
0.0028169847 0.17664106 -0.13713458 0.0141735915 -0.037558857 -0.11463313 0.087106764 -0.17715806
00000000: e8d0 f63b 13a4 cc3c 99f9 abbc 8419 24be
00000010: 4297 9bbd 0055 173d 1044 ccbd 3af3 2a3e
00000020: bb61 1bbd f7b7 18bd a2d0 c5bd 33fe f03d
00000030: 71df 213e 9c01 2e3e 37c8 1ebe 4460 eebb
00000040: c3a8 72bd e798 37bd cb3e 5bbe 56ac 533e
00000050: c8f7 263e 952a f2bd 987f f73d 5741 84bd
00000060: da75 2f3e c1fa d83b 860d a53d a548 d4bc
00000070: c73e 02bd 00cb dcbd a172 15be 94c5 463e
00000080: 7912 353e 9620 543e 5bfa 013e 62d5 34be
00000090: 336a 13be fc47 c63c 5a3f 43be 6ce0 993d
000000a0: f6d8 4d3d d841 59bd 01a1 f43c 532c 4f3d
000000b0: 0fd1 83bd 341a 513c 83cb f93c e9a3 e2bd
000000c0: 1fdb 413e d881 4c3e b27a 12be cbf9 4abd
000000d0: b75b 683c dfdf efbb 0948 9bbd 5f83 053d
000000e0: b22c 593d cb05 473d dc4c f23d ceef e33c
000000f0: 8f4c ad3d 76fd 91bb 8a77 9bbd e73a 9c3d
00000100: 4717 353e 8e5b fb3b cf9d 2bbe b114 6e3d
00000110: e73a 19be 7c78 8d3d 9939 493e 4d7b 1abe
00000120: ddee 27bd 8a9f 2e3e a817 d93d 69ee 3f3e
00000130: 2153 cfbd 0697 a53b ed04 1cbe ca3c b7bd
00000140: ac0f bf3c 7dee 123e f761 5b3e f304 afbd
00000150: 5e16 203e 6615 1abe 7ab1 40be 4e79 b23c
00000160: ab2e 5a3e a35d 3d3e 1412 23be f6d2 2fbd
00000170: fccc 3f3e bc1a e03d f1f7 2b3d a90a cbbd
00000180: 6070 123e 61e3 5a3e 93cd 163e 1adc aa3d
00000190: d3a4 9ebd 1d23 57be e5d7 463e 2097 0f3d
000001a0: 1003 233d a1a3 7e3d 86e0 b5bd 2008 16be
000001b0: 6e24 003e abb7 23bd eed8 46be 97dd 4bbd
000001c0: fd63 27bd 8451 21be a2eb 24be 7f03 56bd
000001d0: 75cc 11be e909 0f3e f661 50be e86c e9bd
000001e0: 863c 06be fb1f 8abd dbfa 31be 7a90 83bd
000001f0: 5059 f1bd 8f7f 103e e1fc 33be 8aaf 3d3e
00000200: c9d0 303e 01c7 b13c 0c22 fdbc a9b2 0ebe
00000210: 46b2 abbd 284a 0dbe c49d 0e3d fc6a 4e3e
00000220: 49d9 acbd b273 5bbd 91b4 8c3d 7042 4bbe
00000230: 4563 8bbd 5093 13be cd5a 19be 3620 8bbd
00000240: 15d4 1d3e 2688 9b3d 772f 0a3e 667d 4a3e
00000250: 9916 f13d c65e 5abc 58a5 a93d 7c93 9bbc
00000260: 71ab 973d bb81 2a3d 6599 843d bcd9 4cbe
00000270: 44a4 10bd a13c bc3d c160 853d 2c6a 943c
00000280: 608f e6bd d884 1b3e 88f5 c1bc 186f bdbd
00000290: e9d4 24be 6fb7 6abc f635 48be 23dd c43d
000002a0: 22c9 173d b979 6bbd ab40 283e 108c b4bc
000002b0: db29 4f3c f176 133e 6cc6 d93c eb93 773c
000002c0: 549b 433e 62b8 28be 1e3f bc3d 69aa 5d3d
000002d0: 1334 1dbc b017 813d 4a11 823d 406e 28be
000002e0: deb1 efbd befc bcbd 8639 443e 6fd8 313e
000002f0: 9ad4 793c 8d29 bf3d 75d2 b83d a65e 1f3e
00000300: e9e0 433d 4aca 153e 0e69 39bd acb7 ec3c
00000310: 44fc b0bd cd90 2ebe e8fa 5cbd e9a2 2bbe
00000320: 48ba 943d 3ddc 073e 17b5 8b3d 442c 3cbe
00000330: 446a b53d 6871 3d3e 9407 103c 27b6 30be
00000340: b311 94bc 95bd 383e 22b0 e3bd 9d62 fcbd
00000350: e5bc 283e 236a 353e 95da 823c 4be5 513e
00000360: ad2c 2abe 13c3 e73d e80a 37be 28c9 80bd
00000370: 7e84 223e 4e88 d0bd 2a89 26be efe2 a33c
00000380: 8b64 583e e327 acbd 30eb 36be a33c 133e
00000390: 3b6e 1d3e 15a1 eabd b2ff c6bd e29d a63d
000003a0: ad45 543d f1ad d3bd 72a8 71bd d751 313d
000003b0: 6e7e 9b3c da6f 103e fe6a b83d 8951 733d
000003c0: be82 283e 697a 3cbe 436b 8d3d 2328 07bb
000003d0: 1beb 17be 07dd febc 6b4d a5bd 8f50 47be
000003e0: 299d 383b 65e1 343e 026d 0cbe 5a38 683c
000003f0: 51d7 19bd c6c4 eabd 0865 b23d ec68 35be

fc2.weight f4 [256, 512]
0.04434676 -0.059526544 -0.02994443 0.05338279 -0.036793917 -0.05205861 -0.010971588 -0.01765189
-0.010494334 -0.044167917 0.029001445 0.055530526 0.020367796 -0.04124048 0.014586599 -0.053884145
0.016495045 0.030377284 -0.00066142617 0.024131978 0.0015105715 -0.025993062 0.017222572 -0.038483787
-0.00692869 -0.00498825 -0.008301611 0.047191978 -0.017821785 -0.012912033 -0.0192958 -0.05377355
0.029919324 0.05702632 0.04975452 0.016779114 -0.013239758 -0.06339247 -0.044167556 -0.064360894
0.030009996 -0.06110507 -0.014229274 0.054364577 -0.03574214 0.016404638 0.015642278 0.030830182
-0.056171585 0.054065045 0.05052595 0.021065265 -0.052668612 0.04554352 -0.007382947 0.01839333
0.04560849 -0.041778248 -0.005352865 0.028354632 -0.06504964 -0.033592314 -0.00071667816 0.012629887
0.008171305 0.025763143 0.043154366 0.05154468 0.047642406 -0.04625287 -0.02064017 -0.03676413
0.0099700065 -0.043983523 0.046248715 -0.007882801 0.0029525515 0.020522388 0.040693466 -0.059369627
-0.023676751 0.018977134 0.028989345 0.047157265 -0.04615599 -0.028994594 0.020202193 0.059155505
-0.042203438 -0.0082366 0.040044345 -0.00076007005 0.042294063 0.017823482 -0.055963602 -0.061889857
0.055538308 0.030818067 -0.055467553 0.0005725016 -0.015395512 0.04182021 -0.0073915096 0.041028555
-0.032009423 -0.013765926 -0.004037255 0.04057486 -0.013845501 -0.03394567 -0.03600513 0.03794307
-0.028779479 0.0526019 -0.04198088 -0.024831247 0.027454669 -0.0057337717 0.0047287005 -0.023950156
-0.020444416 -0.05313732 0.025535148 -0.019646365 -0.004594341 -0.008683307 0.0024386619 -0.045053154
0.025757855 -0.06366289 -0.007327053 0.044259366 -0.023043277 -0.06676 0.024144331 -0.034241702
-0.056554917 0.0059451 -0.052842647 -0.004014696 0.046447247 -0.071677685 -0.010198892 0.042115577
-0.035663486 0.02077735 -0.03372768 0.0043834634 -0.047704477 -0.033536762 -0.022140764 -0.013855624
0.026850522 -0.014669985 -0.0018374143 0.0036530416 -0.050247848 -0.027867395 0.029395157 -0.04238837
-0.05200233 0.0025324966 -0.047698386 0.03704822 -0.069316275 -0.029791271 0.03699182 -0.004671432
0.031700898 -0.036208577 -0.011360716 -0.050522927 -0.047895752 -0.0073828944 -0.0024861996 0.035186406
-0.00093424827 -0.050179277 -0.050917897 -0.04700495 0.02142762 0.011192559 0.025860216 0.025080292
-0.058680978 0.029798271 0.040280007 -0.031909116 -0.0121812215 0.008216371 -0.051291376 0.039960552
0.040856034 -0.0054236264 -0.040399324 0.017043147 0.009717902 0.0032568441 0.012716268 -0.012359518
0.03385551 0.034915123 0.02671235 -0.013753626 -0.07287994 -0.0400437 0.0120361 -0.044575725
-0.006353085 -0.010851267 -0.01556889 0.04916348 0.0049499026 0.06022112 0.010111973 0.0035272534
-0.0074933926 0.01761978 0.007985175 -0.014448497 -0.044667225 0.0072786123 0.017846333 -0.020681672
0.01716878 0.035409633 -0.021324754 -0.027876988 -0.03984245 -0.0603027 -0.058905877 0.002206187
0.01879038 0.04775051 -0.051831484 -0.009257076 0.0324905 -0.05673436 -0.016394058 0.048774756
-0.0023167336 0.004969863 0.031789605 -0.050997153 -0.028395064 -0.0528614 -0.032509882 0.009601549
-0.059090406 0.039078444 0.034227155 -0.05612047 -0.02335056 -0.031778548 -0.054345727 -0.047394704
00000000: f3a4 353d 1bd2 73bd 054e f5bc eaa7 5a3d
00000010: 38b5 16bd 693b 55bd 2dc2 33bc b29a 90bc
00000020: 6df0 2bbc 6be9 34bd 7094 ed3c fa73 633d
00000030: 5dda a63c c7eb 28bd a1fc 6e3c 9fb5 5cbd
00000040: 9e20 873c c8d9 f83c 8f63 2dba 6db0 c53c
00000050: 5efe c53a 67ef d4bc 5a16 8d3c 2da1 1dbd
00000060: 100a e3bb 7974 a3bb 7b03 08bc 604c 413d
00000070: fefe 91bc fe8c 53bc 3a12 9ebc a741 5cbd
00000080: 5f19 f53c 6e94 693d 65cb 4b3d 5a74 893c
00000090: 92eb 58bc e9d3 81bd 0ae9 34bd a5cf 83bd
000000a0: 86d7 f53c 4f49 7abd e721 69bc 64ad 5e3d
000000b0: 5a66 12bd 0563 863c 3c24 803c 948f fc3c
000000c0: 2d14 66bd 4f73 5d3d 4cf4 4e3d 1091 ac3c
000000d0: 0bbb 57bd d88b 3a3d a6ec f1bb 9cad 963c
000000e0: f8cf 3a3d ab1f 2bbd 1667 afbb f947 e83c
000000f0: bf38 85bd 1898 09bd 75df 3bba 96ed 4e3c
00000100: f0e0 053c 3a0d d33c a2c2 303d 8420 533d
00000110: af24 433d a673 3dbd 9315 a9bc fc95 16bd
00000120: 3d59 233c 1128 34bd 4b6f 3d3d dd26 01bc
00000130: 987f 413b 911e a83c 31ae 263d 912d 73bd
00000140: bff5 c1bc ef75 9b3c 107b ed3c fa27 413d
00000150: 100e 3dbd 1286 edbc 127f a53c 0b4d 723d
00000160: 83dd 2cbd cef2 06bc 8a05 243d 703f 47ba
00000170: 8a3c 2d3d 8d02 923c 173a 65bd 3880 7dbd
00000180: 237c 633d 2c76 fc3c f231 63bd ef13 163a
00000190: 753d 7cbc ab4b 2b3d 7a34 f2bb 8f0d 283d
000001a0: 501c 03bd 7a8a 61bc f34a 84bb d331 263d
000001b0: 3dd8 62bc 9d0a 0bbd 1d7a 13bd 316a 1b3d
000001c0: f1c2 ebbc 1775 573d 25f4 2bbd e66a cbbc
000001d0: 9de8 e03c 5de2 bbbb 37f3 9a3b 1e33 c4bc
000001e0: 0c7b a7bc 85a6 59bd 162f d13c 6af1 a0bc
000001f0: 208c 96bb 6e44 0ebc f5d1 1f3b a889 38bd
00000200: 2302 d33c b061 82bd c717 f0bb 4f49 353d
00000210: 41c5 bcbc 78b9 88bd 55ca c53c 0741 0cbd
00000220: 21a6 67bd 1dcf c23b 8871 58bd b68d 83bb
00000230: 783f 3e3d c0cb 92bd 4119 27bc 6281 2c3d
00000240: e013 12bd 4335 aa3c 0926 0abd 28a3 8f3b
00000250: c565 43bd d85d 09bd 8c60 b5bc b302 63bc
00000260: a0f5 db3c 605a 70bc 65d5 f0ba de67 6f3b
00000270: b0d0 4dbd 2a4a e4bc 1dce f03c 6d9f 2dbd
00000280: 6500 55bd 3ef8 253b 625f 43bd e0bf 173d
00000290: b1f5 8dbd d30c f4bc bc84 173d d012 99bb
000002a0: cdd8 013d 724f 14bd 4c22 3abc 21f1 4ebd
000002b0: 562e 44bd 35ec f1bb 82ef 22bb 9f1f 103d
000002c0: 57e8 74ba c988 4dbd 498f 50bd 4388 40bd
000002d0: fa88 af3c ff60 373c ced8 d33c 2f75 cd3c
000002e0: 775b 70bd 811b f43c a6fc 243d 22b3 02bd
000002f0: bf93 47bc f59d 063c e816 52bd adad 233d
00000300: a858 273d adb8 b1bb c379 25bd 129e 8b3c
00000310: d637 1f3c c770 553b e557 503c 937f 4abc
00000320: 13ac 0a3d 2903 0f3d dcd3 da3c e356 61bc
00000330: 1442 95bd dd04 24bd 1033 453c 0995 36bd
00000340: 8a2d d0bb 83c9 31bc a814 7fbc a55f 493d
00000350: cb32 a23b 6caa 763d b0ac 253c 7e29 673b
00000360: 228b f5bb 5b57 903c 40d4 023c 64b9 6cbc
00000370: fbf4 36bd 6d81 ee3b 7932 923c 9c6c a9bc
00000380: 8ba5 8c3c b109 113d 40b1 aebc 485e e4bc
00000390: d631 23bd f7ff 76bd 4a47 71bd ad95 103b
000003a0: 48ee 993c 0a96 433d 404d 54bd feaa 17bc
000003b0: c214 053d 4a62 68bd d54c 86bc 0ac8 473d
000003c0: 57d4 17bb 3cda a23b d135 023d 64e2 50bd
000003d0: c49c e8bc 3285 58bd 1529 05bd d14f 1d3c
000003e0: c808 72bd b810 203d c631 0c3d 94de 65bd
000003f0: ac49 bfbc 392a 02bd a099 5ebd f320 42bd

fc2.bias f4 [256]
0.03899765 0.04027803 -0.038165588 -0.036627855 0.011840656 -0.036683083 -0.006714874 0.010208232
0.02710621 0.07141753 -0.04124816 0.04094403 0.031965103 0.09013913 0.0519758 -0.032115523
0.008964418 -0.042345423 0.0058671166 -0.011257982 0.057554215 -0.010704631 -0.00046592284 -0.020627454
0.0042988774 0.067155495 0.0062826043 -0.04602122 -0.044931225 0.044079266 -0.0063802726 0.00811656
-0.04375352 -0.037753984 0.024136402 -0.0008094652 0.034684245 0.031010542 0.06410272 0.014391627
0.022762934 -0.0028188783 0.058296848 -0.048295546 -0.012612183 0.014953971 -0.015252481 -0.0022859212
0.040287152 -0.053250026 0.004800197 -0.032773376 -0.039386183 0.0071428916 0.021804957 -0.029120373
-0.03693313 -0.049908176 -0.013626637 0.018438332 -0.047831528 0.0028575936 -0.015415299 -0.0023679822
0.005672216 -0.02203595 -0.0022883122 -0.0014722443 0.0033325315 0.0025313026 -0.016109213 0.009862455
0.022572152 -0.021845426 0.027961783 -0.011449571 0.0036093134 0.035860874 0.04873244 -0.054385282
-0.028520193 -0.03671499 0.06319328 -0.0100704385 0.03625874 0.03635551 -0.0016958262 0.039473884
-0.007137426 0.05645996 0.04845536 0.056092992 -0.014595149 -0.043299768 0.06457515 0.07514067
0.01697722 0.0030645325 -0.032204952 -0.045838937 0.009054279 0.027189583 0.034872223 -0.042140096
0.011236895 -0.01572828 0.029722197 -0.051392924 0.022246487 -0.009555114 0.017360903 0.07640815
-0.039560094 0.03420163 0.018864695 -0.015800674 0.0011264154 -0.052646745 -0.002211056 -0.00010418147
0.0042069126 0.0049960394 0.051877245 0.035505287 0.030751033 -0.014836874 0.041564193 0.037538674
0.013466844 -0.043938775 0.007516273 0.061269015 0.0075378236 -0.0010279154 -0.043624435 0.016474651
-0.05209917 0.022948688 0.0077334326 -0.027667869 -0.007895888 0.020176925 0.035632573 0.018645862
-0.04532931 -0.02623012 -0.053532105 -0.043662965 -0.019219048 0.011833467 -0.03303839 -0.042679954
-0.02601386 0.022322021 -0.044435944 0.0017570449 -0.01858829 -0.025714817 0.02456102 -0.009320723
-0.019095203 0.007179171 0.06815959 0.034713436 0.0650066 0.06439191 -0.008761483 -0.03872981
-0.0053952076 -0.030775152 0.031527184 0.0668171 -0.058425542 -0.013946316 0.02276475 0.019502068
-0.020150399 -0.011216573 0.0149365645 0.06357527 0.015382364 0.050787747 -0.004678106 0.018254029
-0.01469868 -0.0007006639 0.038272712 0.023304299 0.031248834 0.017537145 0.026663851 -0.009268179
0.0549396 -0.0002345939 -0.018416613 0.03075028 0.0361419 0.035231955 0.03523335 -0.02948224
-0.037561752 -0.05007831 0.05044705 -0.010699382 0.028660208 0.008235663 -0.056536656 0.035629835
-0.03520022 0.040915765 0.03234889 0.02367176 -0.014852643 0.01234485 0.06530666 -0.017373962
0.019260101 -0.029609188 -0.018548926 0.031176724 -0.020194253 0.06670443 0.023651259 0.02934528
0.07931099 -0.0019881318 0.014512503 -0.045557823 -0.017949922 0.022539321 -0.00478752 -0.0013283727
-0.03990862 0.02390474 0.014282803 -0.0012296056 -0.05441486 -0.011042271 0.021461101 0.009069829
-0.0155636165 0.003577965 0.010595735 -0.011419611 0.032950614 0.026250953 0.06839175 0.029909033
0.032545112 -0.010832091 -0.06246213 0.003762905 0.02771544 0.0022591816 -0.009667406 -0.00853654
00000000: 00bc 1f3d 93fa 243d 8553 1cbd 1707 16bd
00000010: 50ff 413c 0041 16bd 7208 dcbb 6e40 273c
00000020: d80d de3c 5b43 923d d5f3 28bd edb4 273d
00000030: d7ed 023d dd9a b83d 94e4 543d 918b 03bd
00000040: 7fdf 123c 6572 2dbd f140 c03b 6673 38bc
00000050: f8bd 6b3d 7a62 2fbc 1b47 f4b9 e8fa a8bc
00000060: 99dd 8c3b d288 893d 4ede cd3b bf80 3cbd
00000070: ce09 38bd 768c 343d 9b11 d1bb 52fb 043c
00000080: e436 33bd eca3 1abd b4b9 c53c 4a32 54ba
00000090: 1111 0e3d d209 fe3c 4948 833d dcca 6b3c
000000a0: 5579 ba3c eebc 38bb adc8 6e3d 8dd1 45bd
000000b0: 54a3 4ebc 8001 753c 8be5 79bc 65cf 15bb
000000c0: 2404 253d b31c 5abd f94a 9d3b 603d 06bd
000000d0: 6853 21bd eb0e ea3b 4fa0 b23c d98d eebc
000000e0: 3247 17bd 846c 4cbd 4242 5fbc fc0b 973c
000000f0: feea 43bd 7746 3b3b 7390 7cbc 2630 1bbb
00000100: ffdd b93b bd84 b4bc 82f7 15bb 52f8 c0ba
00000110: 9a66 5a3b 36e4 253b 78f7 83bc 2296 213c
00000120: 3ce9 b83c 2ef5 b2bc 1c10 e53c fb96 3bbc
00000130: 3b8a 6c3b dae2 123d ab9b 473d 1ac3 5ebd
00000140: 2ea3 e9bc 7562 16bd 7a6b 813d 7bfe 24bc
00000150: 0b84 143d 84e9 143d 7c46 deba 5eaf 213d
00000160: 12e1 e9bb 8f42 673d 2179 463d c4c1 653d
00000170: 7e20 6fbc 195b 31bd fa3f 843d 5ae3 993d
00000180: d013 8b3c 53d6 483b 57e9 03bd 9cc1 3bbd
00000190: 6658 143c b0bc de3c 2dd6 0e3d 189b 2cbd
000001a0: f41a 383c 98d8 80bc f77b f33c 6381 52bd
000001b0: 443e b63c 0e8d 1cbc 7438 8e3c e07b 9c3d
000001c0: c409 22bd 0217 0c3d 228a 9a3c 6a70 81bc
000001d0: 3ba4 933a 1da4 57bd 5de7 10bb 007c dab8
000001e0: 24da 893b d1b5 a33b 3c7d 543d fe6d 113d
000001f0: 97e9 fb3c 5c16 73bc 373f 2a3d 27c2 193d
00000200: 0aa4 5c3c 25f9 33bd 114b f63b 38f5 7a3d
00000210: d9ff f63b 1ebb 86ba 89af 32bd d9f5 863c
00000220: f065 55bd e3fe bb3c bc68 fd3b baa7 e2bc
00000230: c15d 01bc 144a a53c 76f3 113d 35bf 983c
00000240: 3aab 39bd 8ce0 d6bc 7b44 5bbd f0d7 32bd
00000250: 4471 9dbc 28e1 413c 4353 07bd 2dd1 2ebd
00000260: 051b d5bc acdc b63c 7702 36bd a54c e63a
00000270: 7846 98bc e1a7 d2bc 3134 c93c f2b5 18bc
00000280: 8b6d 9cbc 403f eb3b 4197 8b3d ad2f 0e3d
00000290: 2e22 853d e8df 833d 538c 0fbc 26a3 1ebd
000002a0: 48ca b0bb 2c1c fcbc a622 013d 67d7 883d
000002b0: 9f4f 6fbd 177f 64bc 247d ba3c cdc2 9f3c
000002c0: 7312 a5bc b8c5 37bc 7eb8 743c c033 823d
000002d0: 5006 7c3c d006 503d cc4a 99bb 7989 953c
000002e0: bbd2 70bc c2ac 37ba d9c3 1c3d a8e8 be3c
000002f0: 8efd ff3c 0faa 8f3c 266e da3c 8fd9 17bc
00000300: 5908 613d 52fd 75b9 70de 96bc 03e8 fb3c
00000310: 8709 143d 624f 103d d850 103d bd84 f1bc
00000320: 5ada 19bd ea1e 4dbd 91a1 4e3d 764c 2fbc
00000330: d0c8 ea3c e0ee 063c fb92 67bd 97f0 113d
00000340: 1b2e 10bd 4a97 273d 4580 043d 47eb c13c
00000350: 8058 73bc 0e42 4a3c 80bf 853d d753 8ebc
00000360: 5cc7 9d3c f88e f2bc ebf3 97bc 5466 ff3c
00000370: 6b6e a5bc 559c 883d 49c0 c13c 8365 f03c
00000380: cd6d a23d 514b 02bb d9c5 6d3c d79a 3abd
00000390: b70b 93bc 62a4 b83c a1e0 9cbb cb1c aeba
000003a0: 3977 23bd e0d3 c33c 6b02 6a3c b82a a1ba
000003b0: 1ee2 5ebd a4ea 34bc 31cf af3c 9f99 143c
000003c0: 8afe 7ebc 4b7c 6a3b bc99 2d3c 5219 3bbc
000003d0: 39f7 063d 3d0c d73c f910 8c3d ca03 f53c
000003e0: 064e 053d 1579 31bc 4ad8 7fbd 129b 763b
000003f0: 7e0b e33c c70e 143b 0a64 1ebc d8dc 0bbc

fc3.weight f4 [2, 256]
0.002120477 -0.023044912 0.018514311 0.006470685 0.0045784595 0.0075028357 -0.033062845 0.004622951
0.0037163205 -0.030861195 -0.013104752 -0.03290762 0.0041626454 -0.03250689 -0.012302802 0.0028081923
-0.003707823 -0.00056354824 0.004794988 -0.014405737 -0.02728136 0.007911282 -0.013682704 0.0055120555
-0.016624227 -0.018526305 -0.014800775 0.016129123 -0.0039894697 -0.026329897 0.0018016329 0.005897706
-0.0045293723 0.005888626 0.00694817 0.017801391 0.0032210678 -0.020546537 -0.0334053 0.002965395
-0.0058966037 -0.0130599355 -0.03148322 0.005865657 0.0015056155 0.0032121192 0.003527954 0.0023365254
-0.0024659669 -0.0063795308 -0.0032631594 0.0034285088 0.0025760964 -0.017003668 0.004283099 0.005788746
0.010617326 -0.006879074 0.0017249788 0.0052822125 0.0038866717 -0.0066481666 0.005987087 0.003006922
0.002678897 0.0069675082 0.0043293913 -0.009582715 0.0013200472 -0.00953765 0.002333433 -0.0034308373
0.0060090665 0.0067018582 -0.02699986 0.0026982452 -0.035808213 -0.03158565 -0.028660435 0.004733828
0.008239231 0.0050847866 -0.028107995 0.0036711104 -0.008891082 0.0026300566 0.0037819992 0.0034378257
0.0049794274 -0.027383639 -0.023879655 -0.02826975 0.0028015308 0.0051694415 -0.027361188 -0.029817557
0.029505957 0.0056090592 0.032858312 0.05334471 -0.0058729323 -0.016673947 0.1750029 0.007813467
0.008189702 -0.0029255312 0.0062438017 0.019207735 -0.015215684 0.0057206997 -0.013230645 -0.028703904
0.007013822 0.0041542677 0.008217838 0.002079853 0.0044963183 0.007957547 0.004508456 -0.0016115073
0.0067907204 0.004777653 0.045057293 0.005813396 -0.006148609 0.008285677 -0.022650154 0.0060450276
0.004295855 0.0056087826 0.06315195 -0.014057017 -0.042505797 0.052712314 0.0052616764 -0.025440218
0.006466259 -0.03168284 0.008277842 -0.00090268004 -0.025290491 -0.003305341 -0.032652542 -0.033846203
0.006387558 0.005833682 -0.0069352784 0.007620615 0.004803841 0.0039614346 0.0031116924 -0.007546196
-0.0007327877 0.00075591734 0.0061546983 0.004542192 0.0051593063 -0.0071047675 0.007824834 0.0022308852
0.0045598443 0.0051983492 -0.029786102 0.0023827485 -0.039934088 -0.030272296 -0.029237954 0.0031225157
0.0006845 -0.007678533 0.0060333344 -0.033837855 0.031344175 0.0039029627 0.033611145 -0.00231214
-0.031179946 -0.034635015 0.0042340285 -0.032246444 -0.03517994 -0.030951386 0.006601663 -0.024648247
0.00083708105 0.0031608904 0.0043717385 -0.031040784 0.0034969482 -0.028406205 0.0042252317 0.0043448773
-0.030179884 0.0041051507 0.0028990083 -0.009239588 0.007917091 0.0031770547 -0.03476885 0.0031298068
0.0039360984 -0.0069582174 -0.032674752 0.0073499763 -0.0021350277 -0.016964812 0.0029311283 -0.03155253
0.0056614536 -0.00028105683 -0.030942356 0.0025525356 0.0020576962 0.0045018652 -0.03271413 0.00394515
-0.0032621543 0.0013193071 0.007357043 0.0014836888 -0.00403969 -0.016683951 -0.0025915867 0.002168754
-0.02948397 0.0030709303 -0.033288095 0.0040981816 0.0042595877 0.0026368632 0.0036225438 -0.031646587
0.0017333162 -0.02672278 0.004327312 0.004210194 -0.0054577934 0.0068960995 -0.009253139 -0.013619722
0.0041820356 -0.026512647 0.0030987377 0.00432071 0.0070412247 -0.036177546 -0.028306453 -0.02853198
0.0038905453 0.0034720916 0.028518202 -0.028523019 0.0033603103 0.0052516465 0.0030055544 -0.0058487286
00000000: b3f7 0a3b afc8 bcbc 53ab 973c 0a08 d43b
00000010: e706 963b 59da f53b e86c 07bd 207c 973b
00000020: 838d 733b 9ed0 fcbc 50b5 56bc 24ca 06bd
00000030: cd66 883b f225 05bd b191 49bc a609 383b
00000040: f3fe 72bb 15bb 13ba 461f 9d3b 0a06 6cbc
00000050: 297d dfbc 529e 013c 6c2d 60bc 799e b43b
00000060: 882f 88bc 7ac4 97bc f37e 72bc 3921 843c
00000070: 19ba 82bb ccb1 d7bc c524 ec3a 8b41 c13b
00000080: 216b 94bb 60f5 c03b 79ad e33b 39d4 913c
00000090: 8d18 533b 3651 a8bc ffd3 08bd 1357 423b
000000a0: 4c38 c1bb 57f9 55bc 8df4 00bd b234 c03b
000000b0: 1358 c53a 6b82 523b 3f35 673b 6420 193b
000000c0: 0f9c 21bb 620b d1bb bbda 55bb d5b0 603b
000000d0: bad3 283b 474b 8bbc 3d59 8c3b 85af bd3b
000000e0: 4bf4 2d3c db69 e1bb af18 e23a 6916 ad3b
000000f0: 88b7 7e3b ddd8 d9bb 532f c43b c80f 453b
00000100: 6f90 2f3b b24f e43b 91dd 8d3b d200 1dbc
00000110: 6f05 ad3a ce43 1cbc 82ec 183b e6d7 60bb
00000120: b4e7 c43b 439b db3b cf2e ddbc 0bd5 303b
00000130: a2ab 12bd f45f 01bd 4ac9 eabc 3a1e 9b3b
00000140: d7fd 063c 489e a63b bd42 e6bc 0397 703b
00000150: e7ab 11bc 075d 2c3b 6bdb 773b 254d 613b
00000160: 772a a33b a753 e0bc 449f c3bc f695 e7bc
00000170: e399 373b 6b64 a93b 9224 e0bc f343 f4bc
00000180: 7ab6 f13c 33cc b73b 7096 063d fc7f 5a3d
00000190: ba71 c0bb cd97 88bc f633 333e 0e04 003c
000001a0: 1a2e 063c 45ba 3fbb ce98 cc3b 8a59 9d3c
000001b0: 344b 79bc b574 bb3b 59c5 58bc 7324 ebbc
000001c0: 34d4 e53b 8620 883b 1ca4 063c 254e 083b
000001d0: da55 933b 5f60 023c acbb 933b 3639 d3ba
000001e0: b184 de3b dc8d 9c3b ff8d 383d 4d7e be3b
000001f0: 457a c9bb a6c0 073c d18c b9bc 5e15 c63b
00000200: 3ec4 8c3b e1c9 b73b cf55 813d 674f 66bc
00000210: 8f1a 2ebd dee8 573d 246a ac3b 0168 d0bc
00000220: e9e2 d33b dec5 01bd c99f 073c d5a1 6cba
00000230: 012e cfbc 6b9e 58bb acbe 05bd 51a2 0abd
00000240: b84e d13b 7928 bf3b 5541 e3bb 5ab6 f93b
00000250: 8a69 9d3b ecce 813b 89ed 4b3b 1546 f7bb
00000260: 8d18 40ba c128 463a 5aad c93b abd6 943b
00000270: 660f a93b 1ccf e8bb bc33 003c 0b34 123b
00000280: bf6a 953b ea56 aa3b fc01 f4bc e327 1c3b
00000290: ed91 23bd 9bfd f7bc 6f84 efbc 1fa3 4c3b
000002a0: 0470 333a 349c fbbb 47b3 c53b 9099 0abd
000002b0: c062 003d d9c8 7f3b d7ab 093d 4687 17bb
000002c0: 166d ffbc 72dd 0dbd 9bbd 8a3b d914 04bd
000002d0: d718 10bd c38d fdbc c352 d83b 1feb c9bc
000002e0: 8f6f 5b3a f126 4f3b cd40 8f3b 3e49 febc
000002f0: 0e2d 653b 21b4 e8bc d073 8a3b 795f 8e3b
00000300: ce3b f7bc 8084 863b 4afd 3d3b a461 17bc
00000310: b0b6 013c 2236 503b c869 0ebd 721d 4d3b
00000320: 63fa 803b c201 e4bb f6d5 05bd 12d8 f03b
00000330: d2eb 0bbb caf9 8abc 2c18 403b 3a3d 01bd
00000340: b783 b93b cf5a 93b9 d37a fdbc 7148 273b
00000350: 6ada 063b 6284 933b 40ff 05bd 5146 813b
00000360: dec9 55bb 9aec ac3a 5a13 f13b 5678 c23a
00000370: 605f 84bb c8ac 88bc 9cd7 29bb a821 0e3b
00000380: 5e88 f1bc a941 493b 1959 08bd 0a4a 863b
00000390: 0394 8b3b 39cf 2c3b 3368 6d3b da9f 01bd
000003a0: 7130 e33a bbe9 dabc 20cc 8d3b abf5 893b
000003b0: 4ad7 b2bb adf8 e13b 7a9a 17bc 4125 5fbc
000003c0: 7509 893b 0d31 d9bc 3114 4b3b be94 8d3b
000003d0: 13ba e63b e82e 14bd efe2 e7bc e6bb e9bc
000003e0: 85f8 7e3b 088c 633b 019f e93c 1ba9 e9bc
000003f0: a738 5c3b 0116 ac3b d6f8 443b b1a6 bfbb

fc3.bias f4 [2]
0.031824578 -0.0046100267
00000000: 7d5a 023d b50f 97bb
